DL/best_model.pth (torch, 320424 bytes, 4 tensors)

linear1.weight f4 [100, 784]
000000 e3 45 26 bc ad d5 00 3d e6 ac 0b bc ad b5 bb 3c
       -0.010148498 0.031453777 -0.008525109 0.022913778
000010 4c 2e fb 3c 3b ce 95 bb 49 ac 7a 3c c7 d1 ff 3c
       0.030661725 -0.0045717037 0.015299865 0.03122796
000020 b0 28 43 3d 0c ca c2 bc 9b a8 9a bd 33 03 47 3c
       0.047646224 -0.023777984 -0.0755169 0.012146759
000030 e1 cc 97 3e d8 8b 88 3e 55 32 3b 3e f2 08 58 3e
       0.29648498 0.26669192 0.18280919 0.21097162
000040 41 a9 d6 3d 63 01 f9 bd 28 2c ad bd ca 62 06 3d
       0.10481501 -0.121584676 -0.08455688 0.032809056
000050 f7 cc 88 3d f6 34 76 3d bd c4 92 3c e2 b7 cb 3c
       0.06679719 0.0601091 0.017916078 0.024867956
000060 58 c0 61 3b a1 7b a1 3c 1f a7 f3 3c 0d 4c f8 3c
       0.0034446921 0.019712271 0.029742775 0.030309701
000070 ac 55 60 3d c2 54 00 3d d7 a4 cd 3b 48 f7 fb 3c
       0.054769203 0.03133083 0.006275754 0.030757561
000080 20 3f 3e 3b 16 ff 8b 3d 42 9b 8e 3d c6 b3 22 bc
       0.0029029325 0.06835763 0.06963207 -0.009930557
000090 a0 d2 82 bd 1a 75 1a be 19 66 36 be a4 a5 59 3d
       -0.0638783 -0.15083733 -0.17812385 0.053136483
0000a0 2b 8f b9 3d 19 3a fe 3d bc 87 96 3d d0 91 59 3d
       0.0906051 0.12413425 0.07350108 0.053117573
0000b0 f4 65 fb bc 91 64 fe bd 84 ca 6b be 2a dd be bd
       -0.030688263 -0.12421525 -0.23026472 -0.093195274
0000c0 c8 c5 0f bd 1a 80 c8 bb a8 5b a4 3c 52 47 3c 3d
       -0.03510073 -0.0061187865 0.020063236 0.045966454
0000d0 00 e5 07 3d ad 62 8c bc db 5b be 3c 50 75 47 3d
       0.033177376 -0.017136896 0.02323716 0.048695862
0000e0 3e f3 33 3c 1a 9f 0d 3d 73 a6 23 bb 5d 61 54 bc
       0.010983286 0.03457556 -0.0024971038 -0.012962666
0000f0 aa 0b 15 3d 36 20 0d bb 7a 8d 42 bd 55 e4 e5 bd
       0.036388077 -0.0021534092 -0.047498204 -0.112251915
000100 e0 1b 3b 3d f9 c8 8a 3d 34 05 b4 bc 70 6f 29 3d
       0.04568088 0.06776614 -0.021975137 0.04136604
000110 d6 1b be b9 9a 30 16 3d 58 7b e8 3d 8d 1e 43 3d
       -0.00036260363 0.036667444 0.11351651 0.047636557
000120 f6 9d 2a bd 48 e1 05 bd bd 04 e3 3c c4 5c b1 bb
       -0.04165455 -0.032685548 0.02771222 -0.00541267
000130 9a 90 09 be 54 3d 01 be f6 bc 60 bd 12 14 47 3b
       -0.13434067 -0.12621051 -0.054867707 0.0030376953
000140 b5 ec 1c 3d d2 41 9e bc 00 e4 6c 3b 49 c5 1b 3d
       0.03831168 -0.019318495 0.003614664 0.038029943
000150 1b fe 58 3d 90 db ae 3a a9 f8 4a bc 45 b9 0c 3d
       0.05297671 0.0013340581 -0.012388387 0.034356374
000160 56 12 e8 bc 9f 86 71 bd 07 8f d7 bd 92 a0 b3 3d
       -0.028329056 -0.058966275 -0.10525327 0.08770861
000170 98 cf 0b 3e 56 8b ab 3c d2 c8 b4 bc 6b 1e e0 3b
       0.1365341 0.020940464 -0.022068415 0.0068395636
000180 a8 8c 8a 3c a3 34 ba 3d 24 2d 8f 3d a9 8d dc 3d
       0.016912773 0.09092071 0.06991032 0.10769207
000190 5b 2a da 3c fc 18 a3 bd 2a 63 29 bd fe 5e f8 3c
       0.026631525 -0.0796375 -0.041354336 0.030318733
0001a0 fe 4c ad 3d 61 76 82 bd 7f 36 cb bd 21 8f 48 bd
       0.08461951 -0.06370235 -0.09922504 -0.048964623
0001b0 b7 88 bd 3c 40 44 c4 3c 0e 66 6d 3c eb 31 cf 3c
       0.02313648 0.023958325 0.014489664 0.025292357
0001c0 ae bb 59 3d 9e 83 98 3b ad 8e 90 bc 35 05 60 bc
       0.0531575 0.004654362 -0.017646158 -0.013673116
0001d0 55 41 28 bd a6 b5 2f bd 40 98 25 bc cc 46 f8 3c
       -0.04107793 -0.042897843 -0.0101071 0.030307196
0001e0 82 32 8f 3d ec b5 ea bc 54 bb 63 3d 5b 27 a2 3d
       0.069920555 -0.0286512 0.055598572 0.07917663
0001f0 4c 1c ae 3d 1f f0 cd 3d 6b 19 83 3d 8b aa ca 3d
       0.08501491 0.10055565 0.064013325 0.0989581
000200 87 90 be 3d 4c 05 58 bd 95 5e 8c bd ca 34 39 bc
       0.0930491 -0.052739426 -0.068539776 -0.01130409
000210 2b 31 67 bd da 99 9c bd 49 b9 94 bd 40 5c bc bd
       -0.056443375 -0.07646532 -0.07261903 -0.09197283
000220 1b cd 0a bd e2 f3 ec bc f4 a9 21 3b 75 b9 4b 3c
       -0.03388701 -0.028924886 0.002466795 0.012434353
000230 03 ef c3 3b 7a 21 28 3d f4 44 be 3c e8 82 f2 3c
       0.00597942 0.04104755 0.023226239 0.029603437
000240 22 af f1 bb bf 8e 89 bd 14 41 7e bc 81 63 89 3d
       -0.007375614 -0.0671668 -0.0155184455 0.06708432
000250 71 d7 48 3c cf 24 1f 3d 7d 98 81 3c 32 d1 93 3d
       0.0122583965 0.038853463 0.015819782 0.07217635
000260 41 45 87 3d 03 0f 3b 3d 08 a2 3f 3d 98 b6 8a 3d
       0.06605006 0.045668613 0.046785384 0.06773108
000270 44 19 e2 3d 37 b7 69 3d 14 1b 56 bc 74 e3 7a bd
       0.11039975 0.057059493 -0.013067979 -0.061252072
000280 bb 02 aa bd 1f 52 ba bd 0b dd 6b bd 21 a1 f9 bd
       -0.08301302 -0.090976946 -0.05758385 -0.12188936
000290 98 a7 a8 bd d6 f4 29 bd 2d f2 3d bc 3e 5b a9 bb
       -0.08235091 -0.04149326 -0.011593384 -0.0051683476
0002a0 9d bf 3b 3b dc f7 67 3c c5 a9 a6 3c 74 00 71 bc
       0.0028648146 0.014158215 0.020344624 -0.014709581
0002b0 34 bf 6c bc c0 76 71 bd 40 6f 81 bd c6 17 c7 b9
       -0.014449883 -0.05895114 -0.063200474 -0.0003797395
0002c0 22 63 c6 bc 3a 7c 0b 3c f2 2f 98 3c c0 bd 77 3d
       -0.024217192 0.008513505 0.01857755 0.060483694
0002d0 4b a5 ae 3b 3b 6b 5a 3d c4 a2 17 3b 8d e4 a3 3d
       0.005329763 0.05332492 0.0023137787 0.08002577
0002e0 bd a4 93 3d 76 d1 00 3e 70 70 f4 3d 76 d7 ef 3c
       0.07209156 0.12579903 0.11935508 0.029277544
0002f0 74 7e 4b bd 17 24 ba bc fa fe f6 bd 07 1a b8 bd
       -0.049681142 -0.022722287 -0.12060352 -0.08989339
000300 46 3d 5e bd 55 ed d9 bc a2 f8 e2 bc b6 b7 c5 3c
       -0.054257654 -0.026602427 -0.027706448 0.024135452
000310 fa 89 66 bc a7 84 c0 3c 22 84 67 bc 0e e4 34 3c
       -0.014070982 0.023500754 -0.014130624 0.011040701
000320 74 d9 35 bd 6d fa ab bd ce be b8 bc 0c c7 40 bb
       -0.044396833 -0.08397374 -0.02255192 -0.0029415516
000330 87 62 1d bd 34 9c 9a 3c 51 9d 61 ba a4 02 06 3d
       -0.03842404 0.018873312 -0.0008606511 0.032717362
000340 ae 5f a9 bc dd 64 9b 3d fc b6 c1 3c 80 db 64 3d
       -0.020675506 0.075875975 0.023646824 0.055873394
000350 98 3c 03 3c 34 ad d5 3d c2 ed 19 3e ca ad 84 3d
       0.008010052 0.104334265 0.15032104 0.0647846
000360 69 66 58 bd 71 93 80 bd f1 a5 ee bd 23 35 df bd
       -0.05283204 -0.06278122 -0.116527446 -0.10898807
000370 8d 6d a5 bd d3 df b3 bd d3 94 e7 bc 16 2a 02 bd
       -0.08077536 -0.087829255 -0.028269207 -0.031778418
000380 f8 07 c0 ba 8c 5c 7c bc b9 8c 2c bc 5b 7f 92 ba
       -0.0014650812 -0.015402924 -0.010531598 -0.0011176871
000390 1c 99 53 bc da 3b 65 bd 2f ad 94 3b f3 d5 88 bc
       -0.012914922 -0.055965282 0.0045372467 -0.016703581
0003a0 3f be ce bd e8 bc bc bd 26 23 15 bd c8 ec 84 3c
       -0.1009488 -0.092157185 -0.036410473 0.016226187
0003b0 9b 14 43 bc 10 1b 88 3b 5d 00 da 3c 78 b1 e3 bc
       -0.011906768 0.0041536167 0.026611501 -0.027794585
0003c0 dc 83 15 3d d0 2c 15 3d f5 f9 a2 3c 8d f5 16 bc
       0.036502704 0.03641969 0.01989458 -0.009213817
0003d0 9d 5d 48 bd d7 66 b6 bc 31 18 4d bd 02 3b fa bc
       -0.0489174 -0.022265835 -0.0500719 -0.030545715
0003e0 ac 8f 37 bd 62 b1 84 bd 3e 4c e9 bc e1 10 28 bb
       -0.04481475 -0.064791456 -0.028478738 -0.0025644826
0003f0 82 0b 8a 3c 21 5f 30 3c a3 b5 20 bd 56 08 60 bd
       0.01685119 0.010764868 -0.039235722 -0.05469545

linear1.bias f4 [100]
000000 9d 3f 67 bc eb a3 3a bc 92 75 cc 3c e3 16 04 bd
       -0.014114288 -0.01139162 0.024958406 -0.03224839
000010 24 4c e7 bc dc 28 11 bd aa de 16 3d 7f 54 a6 3c
       -0.028234549 -0.035439357 0.036833443 0.020303963
000020 88 06 b1 3c 6d a9 c2 3c 8e 61 e0 ba 84 cc ac bc
       0.02160956 0.02376243 -0.0017118917 -0.021093614
000030 95 4e 82 3d 34 82 59 3c a9 04 95 bc e0 96 d8 bc
       0.063626446 0.013275672 -0.018190699 -0.02643913
000040 8b 90 01 bb f4 e8 9d bb ba 1b 52 3d 3b eb 25 bb
       -0.0019769992 -0.00481903 0.051295973 -0.002531721
000050 cc 36 b0 bc 9d 1f f1 3c e2 11 27 3d dd f4 7d 3c
       -0.021510504 0.02943402 0.04078854 0.0155002745
000060 f5 2b 40 3c e5 9f 98 3b 86 4e a6 bb 48 cd 38 3d
       0.01172923 0.004657733 -0.0050752787 0.045117646
000070 e7 b7 9a 3c b9 6e 1b 3d 26 f0 7a 3d 67 a5 ec bc
       0.01888652 0.03794739 0.06126418 -0.028887464
000080 50 9d 87 bc 2c b9 0c bd 52 f7 27 bc 94 9e cf 3c
       -0.016554505 -0.03435628 -0.010251837 0.02534417
000090 0b 20 28 bd e0 74 ee 3c 7a d9 32 3d 76 b3 2b bd
       -0.041046184 0.029108465 0.043664433 -0.041919194
0000a0 16 9a 84 3c 9f 3a 76 bc fd 2b 8e bc 3c 05 58 bd
       0.016186755 -0.015028625 -0.01735496 -0.052739367
0000b0 9a b0 84 bd 7d 6d 8d 3c cd d3 33 3d bd f3 5f 3d
       -0.064789966 0.017264122 0.04390316 0.054675806
0000c0 76 36 f0 3a 03 07 1f 3b 2a c4 03 bd d2 ac 0b 3b
       0.0018326777 0.0024265654 -0.0321695 0.0021312726
0000d0 db e4 50 bd dd 57 11 3d b3 08 7b 3d 70 21 ce 3c
       -0.050999504 0.035484184 0.061287593 0.025162429
0000e0 76 74 14 3d d5 24 2c bd a4 82 72 3c 04 c4 08 bc
       0.03624388 -0.042027313 0.014801655 -0.008347515
0000f0 3a 2f 3d bc ef 29 3c bc 88 23 5f 3d 81 27 c0 3c
       -0.011546904 -0.011484607 0.054477245 0.023456337
000100 f0 6e 97 3c c1 2c 43 3a 93 5c 3d 3d 97 04 53 3d
       0.018485516 0.00074453285 0.046230864 0.05151805
000110 7d fd 0b bd 92 0b c4 bb 90 29 b2 bc a8 76 84 bc
       -0.034177292 -0.0059828246 -0.021748334 -0.016169861
000120 da 53 17 3d 91 80 21 3d 78 2a 85 bd 47 02 8f 3c
       0.0369452 0.03942925 -0.06502241 0.01745714
000130 b6 48 5c 3d f3 9f 8a bb 4c a3 34 3d b7 9b 58 3c
       0.05378028 -0.004230493 0.044101045 0.013220719
000140 6c 7a 03 bd b1 93 f7 bc 1c 22 e3 3c 87 77 91 bb
       -0.032099172 -0.030221792 0.027726226 -0.0044392976
000150 ef 85 77 bc c8 a7 43 3c 45 ba 19 bd 8a 21 91 bc
       -0.015107616 0.011941858 -0.037531156 -0.017716188
000160 dc 02 a9 3b 38 4c 1b 3c 60 55 b5 bc ea 8a 00 3d
       0.0051578116 0.009478621 -0.022135437 0.03138248
000170 e9 69 9c bc 4d 00 4f bd 74 d6 05 bd 85 2a 93 3c
       -0.01909347 -0.050537396 -0.03267522 0.01796461
000180 a2 21 22 bd f6 d0 1f bd 99 e9 1e 3c 33 1d a6 bc
       -0.039582856 -0.03901764 0.009699249 -0.020277595

linear2.weight f4 [10, 100]
000000 d7 3e ee bd 07 ef 7d bd b4 89 ab bd 52 d4 60 3c
       -0.116330795 -0.061995532 -0.08375874 0.013722496
000010 74 a9 88 be ce df 23 be c9 97 38 be da 85 ab be
       -0.26691782 -0.16003343 -0.18026651 -0.33500558
000020 37 6b 16 3e b7 09 5c 3d 1e 4f 64 be 8b dc d1 3b
       0.14689337 0.053720202 -0.22295806 0.0064044646
000030 83 f9 ef bc 86 ba 90 bd 5b 2c fa 3d 36 7b a5 be
       -0.029293781 -0.070668265 0.122154914 -0.32320565
000040 b3 7c 2e 3e 1e 21 96 3c b6 cb 8f be 3b 25 35 bd
       0.17039756 0.018326338 -0.28085107 -0.04422496
000050 2a 5c 85 3d 81 52 54 3e ff bb 08 3e de 2f d5 3b
       0.065117195 0.20734598 0.13352965 0.0065059504
000060 d2 10 83 be 7f b5 00 3e fe 20 84 be 01 d6 64 be
       -0.2559877 0.12569235 -0.2580642 -0.22347261
000070 9e 95 8a 3c 74 e1 21 3e 5d 03 cf bc 9b 22 33 39
       0.016917046 0.1580866 -0.025270158 0.00017083662
000080 7a 97 32 bd 31 c6 e5 3d fe fa 57 be 8f bd c3 3d
       -0.04360149 0.11219443 -0.2109184 0.0955764
000090 9f d6 49 3e 29 76 7d bd e4 d0 bc bd e9 78 4d bd
       0.19710778 -0.061880264 -0.0921953 -0.050164137
0000a0 56 3b 97 3d 58 9b 52 be 12 e6 32 3d 8e ee 0c be
       0.07384364 -0.20567071 0.043676443 -0.13762876
0000b0 2f f1 64 3d 09 67 9b be c2 5c b1 3d e4 65 e4 3d
       0.055894073 -0.30352047 0.0866027 0.111522466
0000c0 bf ec 88 3d 0c 3d 83 be d1 cf 71 be d2 0d c3 3d
       0.06685781 -0.25632513 -0.23614432 0.095241204
0000d0 24 c0 5e 3e 8c dd 81 be e6 1b 69 3e e2 4e f7 3d
       0.21752983 -0.2536434 0.22764549 0.120755926
0000e0 63 26 14 3d 7d 6b d9 bd d4 b1 9b be ab 0f 57 bd
       0.03616942 -0.10616205 -0.3040911 -0.052505177
0000f0 06 31 d6 3d 96 f2 ed 3d 9e 64 22 3e cf d0 87 be
       0.10458569 0.11618535 0.15858695 -0.26526496
000100 6f 37 2d bd ef de 0d be ec af 3d be 17 fa 27 be
       -0.042289194 -0.13854574 -0.1852414 -0.16403995
000110 41 70 a5 be 43 cb a8 3d a3 d7 41 3d 46 e3 d6 3d
       -0.32312205 0.08241894 0.047324788 0.10492568
000120 aa 97 8f 3d 46 31 33 3e 41 92 53 be 2e 0f 5b be
       0.070113495 0.17499265 -0.2066126 -0.2139251
000130 3e 6e e4 be 72 ab d8 3d 32 43 3c 3c eb f1 1e 3e
       -0.44615358 0.105795756 0.01149063 0.15521972
000140 53 3a 6d be 3d 95 0d be 56 55 5a 3e c2 e0 30 be
       -0.2316678 -0.13826461 0.21321616 -0.17273238
000150 1a 0c 60 be 82 dd cb be 21 1d f5 bc c4 b0 08 3e
       -0.21879616 -0.39817435 -0.029921116 0.1334868
000160 1d 37 09 be 43 1b 22 3e 85 b5 0d 3e 35 6e bf 3d
       -0.1339993 0.15830712 0.13838775 0.09347192
000170 89 c8 b9 bc 0d 53 27 be a0 6b 93 3d a3 53 1a 3e
       -0.02267863 -0.16340275 0.07198262 0.15070967
000180 79 33 4a 3e 4b 82 72 3c 65 b4 0e 3e bd e8 6f 3c
       0.19746198 0.014801572 0.13936003 0.0146428915
000190 97 ed f8 3d c5 24 2a 3e 73 21 9e 3d 69 a3 cc 3d
       0.12154692 0.16615589 0.07721224 0.099921055
0001a0 c5 a3 d2 bd 79 96 6e 3e 2d 49 76 be ae e5 bd 3e
       -0.10285143 0.23299588 -0.24051352 0.37089294
0001b0 ea 8e 25 be 01 85 2e 3d 53 1f 73 be 15 44 a7 3d
       -0.16167799 0.04260731 -0.23742418 0.081672825
0001c0 65 f3 94 bc 81 22 22 3e 36 4d b2 bd 18 f3 d2 bd
       -0.018182466 0.15833475 -0.08706133 -0.10300273
0001d0 1c f5 69 bd df 5d 31 3e 08 ef 05 bd 80 76 45 bd
       -0.05711852 0.17320965 -0.03269866 -0.048208714
0001e0 a1 da 2d 3e 27 0d 53 3e df a3 6f be 20 41 c4 3c
       0.16977932 0.20610486 -0.23402356 0.023956835
0001f0 01 08 71 be 8f 6b 3d 3e 7a 78 cb be 42 88 9f be
       -0.2353821 0.18498062 -0.39740354 -0.31158644
000200 56 52 d2 be bd 8e 66 be f7 d7 de 3b ce 4c 88 bd
       -0.41078442 -0.22515388 0.0068006474 -0.06655274
000210 c1 d6 e5 3b c6 04 23 3e af 32 0e 3d 08 a3 7b be
       0.007014126 0.1591979 0.034716304 -0.2457391
000220 7e 27 4c 3e 56 a9 69 be 1c 1b b4 bd 71 2c e0 3c
       0.1993694 -0.22818503 -0.08794233 0.027364941
000230 b1 54 99 be ab 5b 19 3e 2f 99 23 3e 82 92 89 be
       -0.29947427 0.14976375 0.15976404 -0.2686959
000240 5e 09 46 be db 8e 6d be 53 7c 60 3d 3c fc ae bc
       -0.19339511 -0.23199026 0.054806065 -0.02136051
000250 c4 e9 4c 3d ff f8 55 be f8 eb 16 3d 11 3c e9 3d
       0.050027624 -0.20895766 0.03684613 0.1138841
000260 2e ec 63 bd c7 88 f2 bd 16 0b 01 be 3a 0a 55 3e
       -0.05564516 -0.118424945 -0.12601885 0.20804682
000270 06 3b 1a be 7f 36 5c be 03 1b 31 be 55 f7 d4 be
       -0.15061578 -0.21505164 -0.1729546 -0.4159495
000280 30 6e 9f 3d b1 cb 9f be ff 09 5c 3e cb 7e 2d be
       0.077846885 -0.31210092 0.21488188 -0.16942899
000290 27 98 14 be 2e c1 a5 be bc a6 d1 be fb 95 99 be
       -0.14511167 -0.32373947 -0.4094752 -0.2999724
0002a0 29 4a cc bd bf a9 1f be 1f 62 9e 3d ff 98 57 be
       -0.099750824 -0.15592097 0.07733559 -0.21054457
0002b0 3c 3a ee bc c6 a2 87 3d a8 c0 16 3e e0 1f 30 3e
       -0.029080503 0.066228434 0.1472193 0.1719966
0002c0 d3 d6 ee 3d bf cc 1d be cf 01 3e 3e 4d 93 da bd
       0.11662068 -0.15410136 0.18555377 -0.10672627
0002d0 a7 e6 e4 3d 94 d5 8c be df 56 55 3d 2d e8 09 bc
       0.11176806 -0.27506697 0.0520848 -0.008417171
0002e0 8e ac a2 3e 69 eb ef bc fb a5 9a be cd c0 2d 3e
       0.31772274 -0.029287057 -0.30204758 0.16968079
0002f0 0a 10 7f 3b fa ad 8a bd 8b e0 af be 84 c8 be be
       0.0038919472 -0.06771465 -0.34351 -0.37262356
000300 38 fa 88 3d 90 91 de 3d ce 71 1b 3d d7 f0 1b be
       0.066883504 0.108676076 0.03795033 -0.15228592
000310 55 27 24 be 3b f6 c5 3d 68 82 d2 be 80 a0 f2 3d
       -0.16030629 0.09666105 -0.41115117 0.11847019
000320 02 dd 81 be 1c 66 a8 bd 31 b7 a2 3d d5 ae e0 3d
       -0.25363928 -0.08222601 0.07945097 0.109708466
000330 6d b6 17 be 89 e8 13 be 8a 37 7e be cf e4 41 3c
       -0.14815684 -0.14444174 -0.24825874 0.011834337
000340 c4 cb 32 3e f1 69 ad 3d 58 46 6e be 77 99 53 3d
       0.17460543 0.08467472 -0.23269022 0.051660027
000350 e5 48 73 be 5a 22 d5 3d 3c 20 a4 3d a7 ee a9 3d
       -0.23758276 0.10406943 0.08013961 0.082974724
000360 a6 17 87 be 2e 34 ed 3d f4 9a aa bc f0 b0 ff bd
       -0.2638523 0.11582218 -0.02082584 -0.1248492
000370 65 6c c4 bd 78 9b 21 3e 70 c8 5c be d5 34 db 3c
       -0.09590987 0.15781963 -0.21560836 0.02675859
000380 89 68 23 bc 02 41 0c 3e 8f 76 b0 be 9b 49 d7 3d
       -0.009973654 0.13696674 -0.34465453 0.10512086
000390 39 66 8e 3c cd 5d 27 be 2d ef b9 3b e0 52 6a 3d
       0.017382728 -0.16344376 0.005674264 0.057207942
0003a0 5c 52 07 bf 47 5a 04 3e 1e cd 76 bd 5f 4e e5 3d
       -0.52860045 0.12925063 -0.06025421 0.11196589
0003b0 ae b2 b8 bd 75 6e ee 39 2d a7 97 3d f0 ba 09 3e
       -0.090184554 0.00045477194 0.07404933 0.13450217
0003c0 58 55 95 be 6f a4 da 3b 73 82 9e 3d 8c 92 89 be
       -0.29166675 0.006672434 0.07739725 -0.2686962
0003d0 85 ad f8 bc f8 e2 ce 3d 80 62 5d 3d 7c b0 3c 3d
       -0.030356178 0.101018846 0.054049015 0.046066746
0003e0 7d 5a 39 3c e9 1c a2 3d ae ee 99 3d 7f 06 98 3d
       0.011313078 0.079156704 0.07516228 0.07423114
0003f0 6b 68 76 be 48 f9 4f be 6b 44 6d bb 31 ff 74 be
       -0.2406327 -0.20309937 -0.003620411 -0.23925473

linear2.bias f4 [10]
000000 35 6e 3d bd f2 ae 43 3d 27 27 99 3d ca e9 97 3a
       -0.04624768 0.047774263 0.07478171 0.001159006
000010 89 de 0b be e0 b4 18 3c f4 c7 ad 3d 1d 71 7f bc
       -0.13659109 0.009320468 0.08485404 -0.015590933
000020 29 c1 0e 3e 75 87 b4 3d
       0.13940872 0.08814899
