DL/best_model.pth (torch, 320424 bytes, 4 tensors)

linear1.weight f4 [100, 784]
00000000: 386d 3c3d d99a 963c 4adc bf3c a1ad 363d
00000010: f1e5 3f3d 792f 0d3d 3aee 193c d930 8c3d
00000020: 54ca 0fbc 2b84 46bd e55c 0fbe d51b acbd
00000030: 5e1a 893e e1a7 b73d 3acf 9c3c 6b29 283e
00000040: b71b bb3c 384c 43be 1178 0fbe 3f11 ebbb
00000050: d472 fa3c 066f 953c 86c0 663d 4549 2e3d
00000060: 97ce 3b3d 5578 0e3c e4f6 6c3d de63 7d3d
00000070: 0d86 683d 707d d23c 098d 733d 307d a23c
00000080: bc58 753d 048a 813d d629 9e3d 7df6 05bc
00000090: 8037 dcbc d571 e1bd 3e8e 59be d005 10bd
000000a0: 04a8 073e b715 753d 0860 af3d cb8f 6c3d
000000b0: 1a82 d2bd e561 a2be 8fea 8ebe 7058 abbd
000000c0: 45d7 72bd 441c 463d 0810 443d bd14 f23c
000000d0: 37e0 813d b566 d63c 519a 3e3a b881 353d
000000e0: a395 0b3d 1e90 7dba 4a8d ba3c df97 63ba
000000f0: 062f c83c f08d 36bb da44 d6bc 7d9d a4bc
00000100: 6d2a c63d b896 d03d 279c 8f3d a4fe b33c
00000110: 13e1 c8bb bc69 ec3d 6f56 903e d330 a13d
00000120: 4391 75bb 1785 b23c 0d11 9b3d a704 d63d
00000130: be98 94bd e2aa 9fbd 199d cc3c b75b 843c
00000140: 81a9 dc3c c96a 073d d1eb 593d 57f2 c63c
00000150: aab0 233d 8bed a73c 29d6 bb3c 63fe 3e3d
00000160: f98d a63c 6584 85bd 75d3 98bd db0d 263e
00000170: 4489 483e 33d9 603d d9ff 97bd 835d f3bc
00000180: b5d2 c9bb 5340 d93d 398b 493e 2367 f73d
00000190: 8915 30bd 0bb6 17be ca91 3abd af70 0d3e
000001a0: 7a39 e83d d680 7fbd 573e e4bd 1542 21bd
000001b0: 11b6 9e3c 0070 293d 9ceb 423b 72a2 293d
000001c0: 0034 593c fa1b a6bb 8069 c1bb e188 cd3c
000001d0: 5150 52bd 170c b2bd d05a 6abd d948 eb3d
000001e0: 778b 083e 56eb cabc 62ab 56bd f4ae e73c
000001f0: 171e 9a3a 57c2 213d 1d2f 163e 878e 563d
00000200: 6e85 ea3b c54f 3fbd 641d 44bd 441c a23c
00000210: 537c 9e3d adf4 00bd ab1d a2bd e085 89bd
00000220: b8e8 013c 05a8 9e3b 1786 47bb 54fc 22bc
00000230: 72d1 1d3c 7ce8 1e3d c776 c43c 223c 60bb
00000240: d084 c0bd a467 bfbd 2818 6e3c 7343 bf3d
00000250: 9e51 cd3d e757 5b3c 03bc a93c fcae bebc
00000260: d1a4 d3bc 9c14 5b3d 79f6 0a3e 1bc5 4f3d
00000270: 13ed 35bd 534c 40bd 6237 13bd 9332 f93c
00000280: d4c2 013c 5dd1 2d3c b08a f4bd 71e5 16be
00000290: 7242 30bd 9565 36bc b831 54bc 6863 583d
000002a0: e6e0 c8bb 1c38 89bc 56f0 25bc 2263 16bd
000002b0: d2e3 a5bd e077 1ebe 0424 8bbd 89ca 663c
000002c0: cfbe 5f3d 5a0a 963c aa08 5c3d 0b02 0a3b
000002d0: a2b5 3abc 08ea 683d aa87 d13d 6ccc 80bb
000002e0: dd78 f3bb 0f15 fabc 0f12 6c3c 1c9b 933d
000002f0: 0ef3 143b e633 c4bc 95f1 01be dfa2 fbbd
00000300: 5e31 84bc 889d a63c 5973 803c 02be a03c
00000310: fc58 2e3d 62c0 30bd 83ba ac3b 2388 56bc
00000320: dfc6 d1bd 8a0f 0fbe 79a6 91bd 018f 80bc
00000330: 8a89 adbc 0c91 4fbc b5cb 0cbd 9241 a03c
00000340: 694a 8bbd cae3 8a3d f131 d83d 5adc 97bc
00000350: 76be 033d a425 d7bc 170c 493d 2489 123d
00000360: 3256 a53d 068c fd3c 12b0 dbbd 0fde b2bd
00000370: d343 9ebd 711c 573a ec35 7d3c 2a4b b33c
00000380: 942c c23b 51f7 76bc 267f 4bbd a96d 0fbd
00000390: 688d a7bd e79d 1dbe 0969 abbd 3de9 0b3c
000003a0: 3daa 55bd 36c3 8bbd 1307 14be 75a7 e3bd
000003b0: 6b08 a2bd f61b c33c 857d 273e e47f 04bc
000003c0: 8d1a b2bc 2b35 ecbd cfd2 95bc 0480 3f3d
000003d0: 6af8 be3d 76b7 bf3c 0b04 a6bd 1a32 b6bd
000003e0: 3cb1 20bd 3e37 cfba 9810 01bd 877d 00ba
000003f0: 4264 e5bc 6d12 5abd a320 38bd 922a 85bd
0.046002597 0.018384384 0.023420472 0.04459918 0.04685015 0.0344691 0.009395177 0.068452545
-0.008776266 -0.04846589 -0.1400028 -0.08403746 0.2677793 0.08967567 0.019141782 0.1642205
0.022840364 -0.19072044 -0.14010645 -0.0071736868 0.030572332 0.018241417 0.05633595 0.042550344
0.045851316 0.008695682 0.05785264 0.06186282 0.056768466 0.025694579 0.059460673 0.019835085
0.059899077 0.063251525 0.07722823 -0.008176443 -0.026881933 -0.1100804 -0.21245667 -0.035161793
0.13247687 0.059835162 0.085632384 0.05775432 -0.10278721 -0.31715313 -0.2791333 -0.083664775
-0.05928733 0.0483668 0.04786685 0.029550904 0.06341594 0.026172021 0.000727092 0.044313163
0.03407825 -0.0009672659 0.02277245 -0.00086819933 0.024436485 -0.0027855597 -0.026155878 -0.020094628
0.09676061 0.10184997 0.070122056 0.021972008 -0.0061303466 0.11543605 0.28190944 0.078706406
-0.0037470616 0.021791978 0.075716116 0.10450106 -0.07255696 -0.07796265 0.024977254 0.016157014
0.026936295 0.033060823 0.053203408 0.024285479 0.0399634 0.020499012 0.022929268 0.04662932
0.02033137 -0.06519393 -0.07462207 0.16216223 0.19583613 0.054894637 -0.07421846 -0.029707676
-0.0061591514 0.10607972 0.19682015 0.12080219 -0.042989288 -0.14815538 -0.04554919 0.13812517
0.11339088 -0.062378727 -0.11144703 -0.03936966 0.019373925 0.041366577 0.0029742485 0.041414686
0.013257027 -0.005069253 -0.005902469 0.025089683 -0.051346127 -0.08693712 -0.05721551 0.11488504
0.13334452 -0.02477042 -0.052409537 0.028281666 0.0011758235 0.039491978 0.1466641 0.05238202
0.0071570193 -0.046706934 -0.04787959 0.019788869 0.07738557 -0.03148334 -0.07915815 -0.06714988
0.00792902 0.004841807 -0.0030444914 -0.009947855 0.009632455 0.038795933 0.023982419 -0.003421553
-0.09400332 -0.0934594 0.0145321265 0.09339037 0.10025333 0.013387657 0.020719534 -0.023276798
-0.025835427 0.05348645 0.13570584 0.050725084 -0.044415545 -0.04694779 -0.03594149 0.030419623
0.007919986 0.010608998 -0.11940515 -0.14735962 -0.043032117 -0.0111326175 -0.012951307 0.052829176
-0.0061303256 -0.016750388 -0.010128101 -0.036715634 -0.08100094 -0.15475416 -0.06793979 0.014086374
0.05462533 0.018315483 0.0537192 0.0021058347 -0.011395844 0.056863815 0.10230954 -0.003930619
-0.0074301795 -0.03052762 0.014408602 0.07207319 0.002272788 -0.023950528 -0.12689812 -0.122869246
-0.016136821 0.020338789 0.015680002 0.019621853 0.04256533 -0.04315222 0.0052712574 -0.013093981
-0.1024301 -0.13970771 -0.0711183 -0.01569319 -0.021183748 -0.012668859 -0.034373958 0.019562516
-0.06801302 0.067817286 0.105564006 -0.018537689 0.03216406 -0.026263066 0.049083795 0.03577532
0.08073081 0.030950557 -0.10726942 -0.087337606 -0.0772778 0.0008205837 0.0154547505 0.021886427
0.0059257243 -0.015073613 -0.049681805 -0.03501669 -0.08181268 -0.15392266 -0.08369643 0.008539495
-0.052164305 -0.06824343 -0.14455824 -0.11115924 -0.07911762 0.023817044 0.16356476 -0.008087132
-0.021741176 -0.115335785 -0.018288998 0.046752945 0.09324725 0.02340291 -0.0810624 -0.08896275
-0.039231524 -0.001580931 -0.031509966 -0.00049015175 -0.028001908 -0.05324023 -0.044953 -0.0650226

linear1.bias f4 [100]
00000000: e25b 3bbd 4931 a13b 877e 58bc b27a 89bc
00000010: 8ed6 543d 1f7d 4bbd 163e 123b 88a8 dbbc
00000020: a8bf 6fbb dd22 cd3c 71ff 59ba 25d6 2bbd
00000030: 2623 983c cf49 19bd 8954 2c3d ec9c 563d
00000040: 9fb2 3b3d 364b c5ba 1b61 febc 0c5d 9ebc
00000050: ba21 1dbd 9018 623c 7476 873d fe3e e5bc
00000060: f23e fcbc 9159 66bc 1765 26bd 1854 33bd
00000070: f3b8 493d e4b2 d5bc 8afc 213d 0572 4b3d
00000080: 5ae0 253d 6289 5fbd 9abc 833b 0274 16bd
00000090: 9ce8 0dbd 74fb 073d e0ba 8f3d 0563 a03c
000000a0: fd6d bd3c fcaa c73c 4b44 8b3a ab02 3aba
000000b0: 538d 303c 5182 84bb 2f18 0f3c 6418 1fbc
000000c0: 5542 953c f6b6 f93c c9de adbc ad3b d0bc
000000d0: 98d8 14bd 83ee f7bb b102 e93b 396b 87bd
000000e0: bb61 b53c 6666 47bc 7f9d 76bd 88f1 c83c
000000f0: 1959 023c d49f 5dbd 4a3b b0bc 6a87 04bd
00000100: 899d 9dbc 694f 46bc fba5 9f3b 1742 d63c
00000110: 861c 48bd f439 8f3c 00ff 01bd 3590 c6bc
00000120: 5313 693b 45da 313d c0c9 663c a3d8 c8bd
00000130: f686 31bd 5d6f cb3c e53d 33bd 0894 7d3c
00000140: b322 22bd c57c 9e3c 2e7b 153b fa52 d93c
00000150: 8924 303d 20d9 e43c 1c6c e6bc 9036 1cbb
00000160: 615d f0bc 03ec 1abd 48a9 c53c bdef d53c
00000170: c216 c1bc 103b 813d acba cb3c 5ec7 4e3d
00000180: 4272 873c a262 0ebd a022 0abd 4c84 4bbc
-0.045741923 0.0049192053 -0.01321376 -0.016782138 0.051962428 -0.04967987 0.0022314838 -0.02681376
-0.0036582742 0.025041038 -0.0008315957 -0.04195227 0.018571448 -0.037423905 0.042072807 0.052395746
0.045824643 -0.0015052322 -0.031052163 -0.019331478 -0.038362242 0.0137998015 0.0661439 -0.027984139
-0.030791733 -0.01405944 -0.04062375 -0.04378137 0.049248647 -0.026086278 0.03954748 0.049669284
0.04049716 -0.054574378 0.004020286 -0.036731727 -0.03464566 0.03319879 0.070180655 0.019578466
0.023123736 0.024373524 0.0010625211 -0.00070957345 0.010775882 -0.0040438552 0.008733793 -0.009710405
0.018220106 0.03048275 -0.021224396 -0.02541908 -0.036339372 -0.0075662746 0.0071109165 -0.06612248
0.022141328 -0.01217041 -0.060208794 0.024529234 0.007955813 -0.054107502 -0.021512646 -0.032355703
-0.019240158 -0.012103894 0.0048720813 0.026154561 -0.048855327 0.017483689 -0.031737328 -0.024238685
0.0035564497 0.04342105 0.014086187 -0.09806945 -0.0433416 0.024833376 -0.0437602 0.015477188
-0.039583873 0.019346604 0.0022809017 0.026528824 0.043003593 0.027935565 -0.028127722 -0.0023836233
-0.029341402 -0.037822735 0.024128571 0.026115293 -0.023570422 0.063100934 0.024869286 0.0504831
0.016533975 -0.034762032 -0.033724427 -0.012421679

linear2.weight f4 [10, 100]
00000000: bf39 1dbe f173 82be 342d 953d 87db 483e
00000010: b463 123e 80e6 b3be 94f7 dbba 3021 d4be
00000020: 38cc a83d cd62 cbbd 7265 6ebe def8 3d3d
00000030: 295d fc3d 3523 853d 44fc d63d b149 b43c
00000040: a9ab 83be bc13 ee3d 92ef c93d cf3a 8fbc
00000050: d978 38bd 5ec6 9abe efe3 a6bd 3371 af3d
00000060: 2a31 98be 783f 0abd ff89 9cbe 3271 26be
00000070: 4907 b93d d085 acbd 414e 55be 7e94 ad3d
00000080: c584 46be 7c29 01be 01cd 17be 2f32 9cbb
00000090: 7de6 c7bd 8492 adbe 8c0c b9be e845 fa3b
000000a0: fadb 6c3c 9319 183d 1ab6 96bc 1e3a 433e
000000b0: dafb e43d 2460 833d 0cd8 863d 610d 48be
000000c0: 9927 1c3e b78f 4cbe c2e4 4f3e 34ba 0e3e
000000d0: 6044 31be 7268 893d 50ce 9e3d 7b3f 82be
000000e0: 5d7c 65be 2066 6abd beef aebb a85f 56be
000000f0: f615 e93d 0f77 523e f911 47be c1d1 a2bd
00000100: fbb2 5dbc e03a a9be 416c 713d 0e3f 0d3e
00000110: 343e 9e3d 3a70 bd3d ca64 4fbd 1668 67bd
00000120: bcfd d93c 9681 71be d6fb 9abe a88c 09be
00000130: 867a c0bc d351 9e3d d794 abbd 6d12 263e
00000140: 0daf 9dbe ce24 a03d d653 573e 4881 56be
00000150: 98cd 9c3d 24e2 643e 5543 86bc 156a c53d
00000160: edfd 263d 6160 ff3d 6914 a33c 7a16 91be
00000170: 9512 133e f456 c63d 6242 3abd 30f8 293e
00000180: 390b a43d 6c62 03be 8f39 823d 54f5 acbe
00000190: 2a80 d8be 5bfd 02bd 09fa 53bd 14c9 2ebd
000001a0: 1b29 d3be 207f f83d 08ff e6bd d6bf 153e
000001b0: 5ea5 983d 3a88 55be d3c9 98bc cf93 0b3d
000001c0: efb4 f43d 38c7 563d 64bc 7a3d 059c 80be
000001d0: aea8 443e ee8a 1e3e 909c 833d 7d37 d9bc
000001e0: 347e 003e be6a 78be bf71 4fbe 5821 09be
000001f0: d613 e0be a659 f7bb 7597 46be 4d83 853e
00000200: d6dd c7be 0c58 96bd e8e9 dabe c7f3 1dbc
00000210: eced f43d db0e 7d3e 0ba7 a3be 92fa 943d
00000220: bf1d 11be e3dd 473e 3647 7cbe 7378 253e
00000230: add2 a2be cb4d 2fbe a8b2 4ebd 3bbc a33e
00000240: 1e88 843e 57b7 ab3d 39b7 033d 6892 a5be
00000250: 20d5 833c 758d fabe 72d1 e7bd 3c6e 6fbe
00000260: 5413 8fbe 9ac9 963d 217d 8ebd 647a 9dbd
00000270: f37a a2be 0703 cabe cfb0 ac3d 146f 353e
00000280: 263b 063e b8d6 42be 602e aebe 11ca 92be
00000290: 5f98 c33d 6674 d0be e60d 8fbd 2532 c6bd
000002a0: 5793 1e3e a086 fd3d 221b 053e 67cb b4bd
000002b0: 7dd7 4bbd 575f 00bf e988 903d 5e5b 6ebe
000002c0: 2550 9b3d 7e9b 60be 6c40 213e 82bb d6be
000002d0: c505 c33d c05c 983d cbb2 aa3c 4563 053e
000002e0: d1b4 8cbe 9b72 89be f379 28bb fe09 3a3e
000002f0: f2cf 47be 00e4 0d3c 5a03 cc3d b1f1 b8be
00000300: 78d1 883e b523 a1bd 905d b03d 4f72 84be
00000310: fa2f 733d 959a 91bd 0620 853d 4396 40bd
00000320: 0de9 b0be 8a65 24be 519d 19bc 8b66 293e
00000330: c6df 9a3d 3718 a73d e146 bf3d c59f 3f3d
00000340: 085e abbe dbd7 983d 8143 6e3e 3e8b dcbd
00000350: dc1a ff3d 9f8c d2be 106d 2c3d d3f4 a2bc
00000360: 936f 603d e250 41be 63ad 1e3d 284c f1bc
00000370: cf08 a93d 6cd4 963d 160a 26be 067f b03d
00000380: 0255 c83c 1dde e33d 3987 3cbd 6e93 e138
00000390: 35a5 e53c 0430 87bd 2913 2e3e 43cc fb3c
000003a0: 13e0 3a3d 515f 22bd db30 473e 8cb7 b2be
000003b0: fea9 793c aa4a c73d b833 83be 1bd8 adbe
000003c0: cab4 103e 5050 67be f028 93be fddc b0be
000003d0: 45ee a1be 8d69 79be 9a97 3e3d a819 833d
000003e0: 5846 4a3e bebe a43d 3805 ca3d 1ee1 bd3d
000003f0: 20c0 68be 12d2 5f3d 982f 223e 9225 043e
-0.1535406 -0.2547908 0.072840124 0.19614993 0.14295846 -0.35136795 -0.0016782158 -0.4143157
0.08242077 -0.09930954 -0.23280886 0.046379916 0.123224564 0.06500856 0.104973346 0.022007795
-0.25716904 0.11624858 0.098601475 -0.017484097 -0.045037124 -0.30229467 -0.08148944 0.08566513
-0.2972501 -0.033751935 -0.30574033 -0.16254118 0.09034593 -0.0842396 -0.20830633 0.08475588
-0.19386585 -0.12613481 -0.14824297 -0.0047667245 -0.09760759 -0.33900845 -0.36142385 0.007637728
0.014456743 0.037133764 -0.01839738 0.19065139 0.111808494 0.06414822 0.065841764 -0.19536354
0.1524948 -0.19976698 0.20302108 0.13938218 -0.17311239 0.067093745 0.07754195 -0.25439057
-0.22410722 -0.0572263 -0.005338638 -0.20934927 0.11381142 0.2055323 -0.1944045 -0.07950164
-0.013531442 -0.3305273 0.05894113 0.13793585 0.07726708 0.09249921 -0.05063323 -0.05649575
0.026610248 -0.2358459 -0.3027026 -0.13432562 -0.023495924 0.077304505 -0.08377998 0.16217966
-0.30797616 0.0781952 0.21028075 -0.20947754 0.076564014 0.22351891 -0.016389528 0.09639374
0.040769506 0.12469555 0.019907193 -0.2833746 0.14362557 0.09684554 -0.045473464 0.16598582
0.08009953 -0.12830514 0.06358635 -0.3378092 -0.4228528 -0.0319799 -0.051752124 -0.04267223
-0.41242298 0.12133622 -0.11279112 0.14623961 0.07453416 -0.20852748 -0.018650925 0.034076508
0.11948573 0.052436084 0.06121482 -0.25119033 0.19204971 0.15482685 0.06426346 -0.026515717
0.12548143 -0.24259469 -0.20258234 -0.13391626 -0.43765134 -0.0075485287 -0.19393714 0.26076737
-0.39036435 -0.07341012 -0.4275658 -0.009640641 0.119594425 0.24712698 -0.3196338 0.07274355
-0.14171503 0.19518237 -0.2463654 0.16159229 -0.31801358 -0.1711952 -0.05046335 0.31979546
0.258851 0.08384579 0.032157157 -0.32338262 0.016092837 -0.48936048 -0.113192454 -0.23381895
-0.27944434 0.07362671 -0.0695746 -0.0768936 -0.31734428 -0.39455435 0.08432161 0.17718154
0.13108501 -0.19027221 -0.34019756 -0.2866979 0.09550547 -0.40713805 -0.06985073 -0.09677533
0.15485893 0.12379193 0.12998632 -0.088278584 -0.049766053 -0.5014548 0.070573635 -0.23277041
0.07583646 -0.21934316 0.15747231 -0.41939932 0.09522585 0.07439566 0.020837208 0.1302615
-0.27481702 -0.2684525 -0.0025707453 0.18167874 -0.19512919 0.0086603165 0.09961577 -0.36121896
0.26722312 -0.07868139 0.08611596 -0.2586846 0.059371926 -0.07109562 0.065002486 -0.0470183
-0.34552804 -0.16054359 -0.009375886 0.16543023 0.07562213 0.081589155 0.09339691 0.046783227
-0.33470178 0.07463046 0.23267938 -0.10768746 0.12456295 -0.4112291 0.042096198 -0.019892132
0.054793905 -0.1887851 0.038739573 -0.02945526 0.08253633 0.07364735 -0.16214785 0.08617978
0.024454597 0.11126349 -0.046027396 0.00010756297 0.028032878 -0.06600955 0.16999497 0.030737048
0.04562385 -0.039641682 0.1945223 -0.3490566 0.015238283 0.09731038 -0.25625396 -0.33953938
0.14131466 -0.2258923 -0.2874217 -0.345436 -0.31627098 -0.2435667 0.046531297 0.06401378
0.19753397 0.08044194 0.09864277 0.09271453 -0.2272954 0.054643698 0.15838468 0.12904957

linear2.bias f4 [10]
00000000: 04a8 693c 1cc7 f8bd dd44 353d b34f 83bc
00000010: f395 57bd 433f 91bd f9b5 bb3d 79e2 a73d
00000020: c6f1 ba3d b3ea d7bd
0.014261249 -0.12147352 0.044255126 -0.016029214 -0.052633237 -0.07092144 0.09165568 0.08197493
0.09128146 -0.10542812
