DL/model_checkpoint.pth (torch, 320536 bytes, 4 tensors)

linear1.weight f4 [100, 784]
0	0x3c33917c	0.010959979
1	0xbcbac065	-0.022796819
2	0xbcc35050	-0.023842007
3	0xbc19319c	-0.009350207
4	0xbc290f4e	-0.01031859
5	0x3cd89032	0.026435945
6	0x3c84d8ba	0.016216625
7	0x3ccccf9e	0.025001343
8	0x3ba90e98	0.0051592104
9	0x3c809612	0.01569656
10	0xbcc3840a	-0.023866672
11	0xbc946df0	-0.018118829
12	0xbaf37140	-0.001857318
13	0xbcf2aa95	-0.029622355
14	0x3b616920	0.0034394935
15	0xbc57d3fc	-0.0131731
16	0xbcb0a40e	-0.021562602
17	0x3b8b6a10	0.004254587
18	0x3bfb3c20	0.0076670796
19	0x3cf12e5a	0.029441047
20	0x3cfe2e3e	0.03102791
21	0xbba11b08	-0.0049165525
22	0x3cc370c6	0.023857486
23	0x3ceedabe	0.029157039
24	0x3cc8ee02	0.024527553
25	0x3cc52d68	0.024069503
26	0xbcedb6fa	-0.029017914
27	0xbc04ad0e	-0.0080979
28	0xbc9c84b5	-0.019106248
29	0x3c271488	0.010197766
30	0xbcede238	-0.029038534
31	0xbc953eb3	-0.018218374
32	0xbd05fb1d	-0.032710183
33	0x3cfdfd02	0.031004433
34	0xbcc03933	-0.023464775
35	0xbc97bece	-0.0185236
36	0x3b082770	0.002077546
37	0x3c99bc80	0.018766642
38	0x3c6f0760	0.014589161
39	0x3d0bbb83	0.034114372
40	0x3c482778	0.012216441
41	0x3c823d78	0.015898451
42	0x3b048430	0.0020220391
43	0x3cc30e8e	0.023810651
44	0xbca6924c	-0.020333432
45	0x3c537448	0.012906142
46	0xbc952e00	-0.018210411
47	0x3d083113	0.033249926
48	0xbbe01c64	-0.006839322
49	0xbd06d18c	-0.032914683
50	0x3c159140	0.009128869
51	0xbca0ad0e	-0.019613769
52	0xbcc44e35	-0.023963073
53	0xbc8c8cfe	-0.017157074
54	0xbcb52b85	-0.022115478
55	0x3ca4a4b6	0.020098072
56	0x38ca1e00	9.6376985e-05
57	0x3c8119de	0.015759405
58	0x3cdf13ba	0.027231086
59	0x3d0f6f89	0.035018478
60	0x3c947076	0.018120032
61	0xbcd82b95	-0.026387969
62	0x3c99a078	0.018753275
63	0x3d0b1669	0.03395692
64	0x3c996772	0.018726084
65	0xbc2e9f00	-0.010658026
66	0x3c700e00	0.014651775
67	0x3cf6675e	0.030078586
68	0x3cf67cfe	0.030088898
69	0xbbb50264	-0.0055239666
70	0x3c9654be	0.018350955
71	0xbc4eefa0	-0.012630373
72	0x3ce8a6ca	0.028399844
73	0x3c933850	0.017971188
74	0xbd028c50	-0.031872094
75	0x3c821702	0.015880112
76	0xbc6a1752	-0.014287787
77	0x3c435194	0.011921305
78	0x3baf22d0	0.005344726
79	0xbc813913	-0.015774285
80	0x3cc37b8a	0.023862619
81	0x3ca64f2a	0.02030142
82	0x3c0c6bc4	0.008570615
83	0xbc8c17f7	-0.017101271
84	0xbc213600	-0.009839535
85	0x3cf7cd1e	0.030249175
86	0xbcd4ba9a	-0.025967885
87	0x3d0bfce1	0.03417671
88	0xbc846d2e	-0.016165342
89	0x3c7aa3d8	0.015297852
90	0xbcf001e5	-0.029297778
91	0x3bacb490	0.005270548
92	0x3b842f00	0.004033923
93	0xbcc3bbfe	-0.023893353
94	0xbd063d6c	-0.03277342
95	0xbcba248a	-0.022722501
96	0x3d0dc3f7	0.034610715
97	0x3d00aebd	0.031416643
98	0xbd1104f7	-0.035405125
99	0xbcdf8b3a	-0.027288068
100	0x3cec1766	0.028819751
101	0xbcede2ea	-0.029038865
102	0xb9801000	-0.00024425983
103	0xbcae2193	-0.021256244
104	0xbc700272	-0.0146490205
105	0x3ce513e6	0.02796359
106	0xbcf45b7a	-0.029828776
107	0xbbecc1b0	-0.007225238
108	0x3c53a15c	0.012916889
109	0x3cf7d65e	0.030253585
110	0xbbbe8b38	-0.005814936
111	0x3d11d44f	0.035602864
112	0x3cff994a	0.031201024
113	0x3b56eb90	0.0032794215
114	0x3cbc6086	0.022995245
115	0xbcd4cb2c	-0.025975786
116	0xbc91d9ec	-0.017804109
117	0x3c89f47c	0.016840212
118	0xbc7245f2	-0.014787184
119	0x3c7285fc	0.014802452
120	0xbc043358	-0.008068882
121	0xbccb04d3	-0.024782574
122	0xbbafca14	-0.0053646658
123	0xbcb98f58	-0.02265136
124	0x3bf53dc0	0.007484168
125	0xbca73a98	-0.020413682
126	0xbc56e226	-0.013115441
127	0xbc535018	-0.012897514
128	0x3cf468fe	0.02983522
129	0x3c5e36f4	0.0135629065
130	0x3b8b6828	0.0042543598
131	0xbc8a18bc	-0.016857497
132	0xbc13e8bc	-0.009027656
133	0xbcfe6e01	-0.031058313
134	0xbc906f45	-0.017631182
135	0x3cd65092	0.026161466
136	0x3ca16fdc	0.019706659
137	0x3cc01ff0	0.023452729
138	0xbc9b3a30	-0.018948644
139	0xbcc8ddc0	-0.024519801
140	0xbc9aa6d0	-0.01887837
141	0x3c5f0500	0.013612032
142	0xbad74ae0	-0.0016425513
143	0x3b56c590	0.0032771565
144	0x3b63cf30	0.0034760945
145	0x3ccdb126	0.025108885
146	0xbcb5ef88	-0.022208944
147	0xbcf2745e	-0.029596504
148	0x39b50080	0.00034523383
149	0x3b8c41a8	0.004280288
150	0xbd105f06	-0.03524687
151	0xbc8a20d0	-0.01686135
152	0x3be538b8	0.006995287
153	0x3d048a4b	0.03235845
154	0xbc0799c0	-0.008276403
155	0xbbdb6654	-0.006695548
156	0xbbf280e4	-0.007400619
157	0xbbf9dd88	-0.0076252855
158	0x3a1da780	0.0006014034
159	0x3cd6b2e8	0.026208356
160	0x3c735e80	0.0148540735
161	0x3c17a9e0	0.00925681
162	0x3c0d8a68	0.008638956
163	0x3cc45aa0	0.023968995
164	0x3cf938d2	0.030422602
165	0xbc454aa0	-0.012041718
166	0x3d0d23c7	0.034457948
167	0x3ce38b06	0.027776252
168	0x3d09d23f	0.033647772
169	0xbc9e109e	-0.019295033
170	0x3d015d73	0.03158326
171	0xbae95c60	-0.0017804019
172	0x3cf73c9a	0.030180264
173	0xbcd1178a	-0.02552392
174	0xbb08db70	-0.0020882748
175	0xbb04e1f0	-0.002027627
176	0xbca82efe	-0.02053022
177	0x3c6ac7dc	0.014329877
178	0xbc468ac0	-0.0121180415
179	0x3c401b34	0.011725236
180	0x3cc0426c	0.023469172
181	0x3d092b6f	0.033488687
182	0xbbb2229c	-0.0054362547
183	0x3d0e7d19	0.03478727
184	0xbd11742a	-0.035511173
185	0xbcb4032a	-0.021974165
186	0x3c1c63d0	0.0095452815
187	0x3b1bcb10	0.0023772158
188	0x3cff17be	0.03113925
189	0xbc8a43fe	-0.016878124
190	0x3cf85b4e	0.030316975
191	0xbc92e703	-0.01793242
192	0x3cb73e1a	0.02236848
193	0x3b3b99e0	0.0028625652
194	0x3aeadfc0	0.0017919466
195	0x3c5cd6fc	0.013478991
196	0x3c09dc40	0.008414328
197	0x3b9d9790	0.0048093274
198	0x3bad6328	0.0052913614
199	0x3d0a19a3	0.033715855
200	0x3c525cf0	0.012839541
201	0x3c0114f0	0.007878527
202	0x3cfaf112	0.03063253
203	0x3cf7577a	0.03019308
204	0xbca2912c	-0.019844614
205	0xbcf64428	-0.030061796
206	0xbcb0f4c5	-0.02160109
207	0x3b571b50	0.0032822676
208	0x3bbb5700	0.0057171583
209	0xbbd82530	-0.00659623
210	0xba0a9640	-0.0005286671
211	0xbc9305f3	-0.017947173
212	0x3d119af1	0.035548154
213	0xbc54f792	-0.0129984785
214	0xbbc588d4	-0.006028274
215	0x3c4dac98	0.012553357
216	0xbc7f1700	-0.0155694485
217	0x384d5800	4.8957765e-05
218	0x3cdc8626	0.026919436
219	0x3d110693	0.03540666
220	0x3c749ff4	0.014930714
221	0x3cc40adc	0.02393096
222	0xbbb70e1c	-0.0055863988
223	0x3a23c140	0.0006246753
224	0xbb8ee728	-0.004361052
225	0xbd034c8b	-0.03205542
226	0x3b8cf1c0	0.00430128
227	0xbcdc98c8	-0.02692832
228	0x3c2f7ce4	0.010710929
229	0x3bea6040	0.007152587
230	0x3c3bf150	0.011471108
231	0xbc176ff8	-0.009243004
232	0x3b800e90	0.003907986
233	0x3ca3be86	0.01998831
234	0xbcf2d731	-0.029643627
235	0xbcf0a17e	-0.02937388
236	0x3cf75a7e	0.030194517
237	0xbcf12a83	-0.029439216
238	0x3c4f5a38	0.012655787
239	0xbcc3c133	-0.023895836
240	0x3c76f408	0.01507283
241	0x3cb0e176	0.021591883
242	0xba052380	-0.0005078837
243	0xba369580	-0.0006965026
244	0x3cb7b53c	0.022425286
245	0xbcbd5d0a	-0.023115654
246	0x3d0290df	0.03187644
247	0xbd0ec492	-0.034855433
248	0xbceee82c	-0.029163443
249	0x38a9ae00	8.090958e-05
250	0x3cc1ded6	0.023665827
251	0x3c808d92	0.015692506
252	0xbcf14f11	-0.029456647
253	0xbcd8d225	-0.026467392
254	0x3b7d88d0	0.0038686283
255	0x3b703e30	0.003665816

linear1.bias f4 [100]
0	0xbc334838	-0.010942511
1	0x3c5e34dc	0.013562407
2	0xb9936b00	-0.00028117746
3	0xbbfc6280	-0.007702172
4	0x3c2c4908	0.010515459
5	0x3d039aff	0.032130238
6	0xbcc74163	-0.024323171
7	0xbc4f8b40	-0.012667477
8	0xbcab2e6e	-0.020896163
9	0x3c620060	0.013794035
10	0xbc835127	-0.016029907
11	0x3ceae4d2	0.028673563
12	0xbceb0381	-0.028688194
13	0x3c7e28dc	0.015512671
14	0x3c9b00dc	0.018921308
15	0x3d0c2183	0.034211647
16	0xbcfd2b4e	-0.030904438
17	0xbce60d8e	-0.028082635
18	0x3c18297c	0.009287234
19	0xbc53b060	-0.012920469
20	0xbb01dab0	-0.0019814186
21	0x3d05fe2b	0.032713097
22	0xbb6f3900	-0.003650248
23	0x3cbd16d2	0.02308217
24	0xbcb42328	-0.02198942
25	0xbd0a600e	-0.03378301
26	0x3ccad586	0.024760019
27	0x3bd9f8c0	0.0066519678
28	0x3cbf506c	0.023353778
29	0x3d04d4a3	0.03242935
30	0xbcef41ce	-0.029206183
31	0xbc4bfe8a	-0.012450824
32	0x3cbe0fa6	0.023200821
33	0x3d024795	0.031806547
34	0x3b982b10	0.0046438053
35	0xbcabf3c0	-0.020990252
36	0x3cbc3e92	0.022979055
37	0xbcd237f0	-0.025661439
38	0xbada5fc0	-0.0016660616
39	0x3cce548c	0.0251868
40	0x3cc1cc60	0.023657024
41	0xbc4dffdc	-0.012573209
42	0x3a7603c0	0.0009384714
43	0x3cf8839e	0.030336197
44	0xbc1e6c60	-0.009669393
45	0x3c36307c	0.011119958
46	0xbcb453f5	-0.02201269
47	0xbcfe3588	-0.031031385
48	0x3c8cf5ae	0.017206993
49	0xbcd350a0	-0.025795281
50	0xbd09dbe4	-0.03365697
51	0xbb4060e0	-0.0029354617
52	0xbc0cd0f8	-0.008594744
53	0xbc0699a4	-0.008215342
54	0x3d0e8361	0.03479326
55	0x3cd9d93e	0.026592847
56	0xbb8bae80	-0.0042627454
57	0x3ce2bb8e	0.027677324
58	0x3c830860	0.015995204
59	0xbc326cee	-0.010890229
60	0x3cfb77ce	0.030696776
61	0xbd02d2d4	-0.031939343
62	0x3caf2072	0.021377776
63	0x3cdb3bf2	0.026761983
64	0xbb153170	-0.0022765063
65	0x3ca6e0c0	0.020370841
66	0x3ced1ad6	0.02894346
67	0x3c73ab38	0.014872365
68	0x3bfeea90	0.007779427
69	0x3cee438e	0.029084947
70	0xbcf7cadc	-0.030248098
71	0x3cb80b92	0.022466455
72	0x3c163590	0.009168044
73	0xbd0a935b	-0.033831935
74	0x3d0f28ef	0.034951147
75	0xbc803fec	-0.01565548
76	0x3c0469f0	0.008081898
77	0xbcf2f1bc	-0.029656284
78	0x3c255968	0.010092117
79	0xbce14e43	-0.027503138
80	0x3d0b817d	0.034059037
81	0xbce48ffa	-0.027900685
82	0x3cd036c2	0.025416736
83	0x3ccf0418	0.025270507
84	0x3cc84f2e	0.024451818
85	0x3c2f18a8	0.010687031
86	0xba6d8c00	-0.0009061694
87	0x3cee91fa	0.029122341
88	0x3cb5922a	0.022164423
89	0x3cd21de6	0.025649022
90	0x3ccaca56	0.024754684
91	0x3cf6ef7a	0.030143488
92	0x3cc8757e	0.024470087
93	0x3ac55da0	0.001505781
94	0xbcccdfde	-0.025009092
95	0x3cc967ba	0.024585593
96	0xbc966e10	-0.018363029
97	0xbc161992	-0.00916137
98	0x3ccf575c	0.02531021
99	0x3cb785de	0.0224027

linear2.weight f4 [10, 100]
0	0x3d0ab982	0.03386832
1	0x3db8f981	0.09031964
2	0xbdaa2eb3	-0.083096884
3	0x3c249540	0.01004535
4	0xbda213aa	-0.07913907
5	0x3d0fc392	0.03509862
6	0x3d72d5e2	0.059286006
7	0x3d4fac72	0.050701566
8	0xbdc3e450	-0.095650315
9	0x3d45bd42	0.048276193
10	0x3cb74948	0.02237381
11	0xbd037300	-0.032092094
12	0x3aeccac0	0.0018065795
13	0x3d47ceda	0.048781253
14	0xbd8b8c9d	-0.06813929
15	0x3d9b2939	0.07576222
16	0xbdc1353d	-0.094339825
17	0x3d86ab15	0.065756
18	0x3cf65ec4	0.030074485
19	0x3cff418c	0.031159185
20	0x3dc30a71	0.09523476
21	0x3d50d1ca	0.05098132
22	0x3b614640	0.0034374148
23	0xbd956c45	-0.072960414
24	0xbd956e9a	-0.07296486
25	0xbdcade38	-0.09905666
26	0xbbe87b20	-0.007094756
27	0x3d31380a	0.043266334
28	0xbd78e85a	-0.060768463
29	0x3c085298	0.008320473
30	0xbd4231b7	-0.047410693
31	0xbc9351a0	-0.017983258
32	0x3d9d302b	0.07675203
33	0x3ba92800	0.005162239
34	0x3c7ea680	0.015542626
35	0xbdbb88d5	-0.09156958
36	0x3dc56aab	0.09639486
37	0xbd2df830	-0.04247302
38	0x3dac43b9	0.084113546
39	0x3dc58ba5	0.09645776
40	0x3b853c30	0.004066013
41	0x3d280002	0.041015632
42	0x3c6b8dd8	0.01437708
43	0xbc4d9770	-0.012548313
44	0xbdc616b0	-0.09672296
45	0x3cf2618c	0.02958753
46	0x3c7924b0	0.015206501
47	0xbdb110d5	-0.086457886
48	0xbdb92c7a	-0.09041686
49	0xbd1ae2d3	-0.037813973
50	0x3c832234	0.01600752
51	0x3d6b9c86	0.05752232
52	0x3d1cdfea	0.03829948
53	0xbd650730	-0.055915058
54	0x3da9c411	0.0828935
55	0x3d76af66	0.060225867
56	0xbd718d6d	-0.058972765
57	0x3dc930e9	0.09823782
58	0x3d8f228d	0.06989012
59	0xbd83ac8e	-0.064293966
60	0xbcb6e7d4	-0.022327341
61	0xbc821700	-0.015880108
62	0xbd9d0976	-0.0766782
63	0x3d216ece	0.039412312
64	0xbd957543	-0.072977565
65	0xbd732360	-0.059359908
66	0xbd254bf3	-0.040355634
67	0xbd971cd6	-0.07378547
68	0x3d01e442	0.031711824
69	0xbb7a9200	-0.0038233995
70	0xbdca18e7	-0.09868031
71	0x3d16914a	0.036759652
72	0x3d5c0e86	0.053724788
73	0x3ceff854	0.029293217
74	0x3cda558c	0.02665212
75	0x3da4ef05	0.08053402
76	0xbdae28c0	-0.08503866
77	0xbd4ac4c3	-0.049504053
78	0x3c8344ec	0.016024075
79	0xbca5df80	-0.020248175
80	0xbb7c0a00	-0.003845811
81	0x3d4bb716	0.04973515
82	0x3d49fa32	0.04931087
83	0x3bb0bd00	0.0053936243
84	0x3d247a6e	0.04015582
85	0xbccb8a0c	-0.0248461
86	0x3cff1f84	0.031142958
87	0x3cc52428	0.024065092
88	0x3c2c79b0	0.010527059
89	0x3d832da7	0.06405192
90	0x3d12aba2	0.035808213
91	0xbd4949fa	-0.049142815
92	0xbd02e7d4	-0.03195937
93	0x3c5dc228	0.01353506
94	0x3d12e2be	0.03586077
95	0xbbb39230	-0.0054800734
96	0xbd438acd	-0.047739793
97	0x3b24afa0	0.0025129095
98	0x3cbfe420	0.023424208
99	0x3d818de1	0.063258894
100	0xba0cc900	-0.00053705275
101	0xbbe6d000	-0.0070438385
102	0xbb9e0fa0	-0.00482364
103	0x3d255472	0.040363736
104	0xbbc2ba20	-0.005942598
105	0xbd82ed34	-0.06392899
106	0xbdc0095b	-0.093767844
107	0xbcfcb70c	-0.030849002
108	0x3da8896d	0.08229337
109	0xbd9419d8	-0.07231492
110	0x3d920ef1	0.07131756
111	0x3d67b582	0.056569584
112	0xbcc65bd8	-0.024213716
113	0x3b9803b0	0.0046391115
114	0xbd60589d	-0.05477201
115	0xbc922778	-0.017841086
116	0xbdaf8650	-0.0857054
117	0x3db8dba1	0.09026266
118	0xbda88c9a	-0.082299426
119	0x3db5d487	0.08878427
120	0xbd64f410	-0.05589682
121	0x3c2664f0	0.010155901
122	0x3d13c1c2	0.036073454
123	0x3d9d187b	0.07670685
124	0x3db66335	0.08905641
125	0x3d6ca5a2	0.057775147
126	0x3d270e26	0.040784977
127	0x3d539962	0.05165995
128	0xbdb2fbd5	-0.087394394
129	0xbcf3b808	-0.029750839
130	0xbbfbbed0	-0.0076826587
131	0x3da039d7	0.07823532
132	0xbdb052df	-0.086095564
133	0x3cbf9d6c	0.023390494
134	0xbd72d05d	-0.059280742
135	0xbcf6cc14	-0.030126609
136	0x3d8a2d11	0.06746877
137	0x3db4dc41	0.088310726
138	0x3d5257a6	0.05135312
139	0xbd7f6633	-0.062353324
140	0x3d723ec2	0.05914188
141	0x3dbf8571	0.09351624
142	0x3c566f68	0.013088085
143	0x3daf5a9b	0.085622035
144	0xbd243c7a	-0.040096737
145	0xbdb1509b	-0.086579524
146	0x3da68e2b	0.08132585
147	0xbdaa6946	-0.083208606
148	0x3da1cfb1	0.07900942
149	0xbdcc5600	-0.09977341
150	0xbb70a200	-0.0036717653
151	0x3d816269	0.063175984
152	0xbd92166a	-0.071331814
153	0xbdc08802	-0.094009414
154	0xbdbb160b	-0.09135064
155	0x3dc40cf5	0.09572784
156	0x3d48ba32	0.049005695
157	0xbdaa0c26	-0.083030984
158	0x3d301ace	0.042994313
159	0x3be8db50	0.007106222
160	0xbd971fc6	-0.07379107
161	0x3cc869d4	0.024464525
162	0xbd43b32d	-0.047778297
163	0xbd19833c	-0.03747867
164	0x3d65209e	0.05593931
165	0x3d062fb2	0.03276033
166	0xbd7f9ced	-0.062405515
167	0xbb2316a0	-0.0024885312
168	0xbd1e73ba	-0.038684584
169	0xbd049c26	-0.032375477
170	0x3bb2f050	0.0054607764
171	0xbd85e114	-0.06537071
172	0xbd6ab9ea	-0.057306208
173	0x3da94dc1	0.082667835
174	0x3c8c36f4	0.017116047
175	0xbd3af423	-0.045642983
176	0x3ce346d4	0.027743734
177	0x3cf22064	0.02955646
178	0xbdc44480	-0.09583378
179	0x3d7bc122	0.061463483
180	0xbd769d10	-0.06020838
181	0xbd533f33	-0.051573943
182	0x3d42ef22	0.047591336
183	0x3d922b29	0.071371384
184	0xbd9e3c6a	-0.07726367
185	0xbd48fb77	-0.04906794
186	0xbcf19f34	-0.02949486
187	0x3c8980d8	0.01678507
188	0x3c842ccc	0.016134642
189	0x3ca50020	0.020141661
190	0xbbccdd80	-0.006251991
191	0xbc4e4cd8	-0.012591563
192	0x3dab312b	0.083589874
193	0xbdbc48a0	-0.091935396
194	0xbd1b3eb3	-0.03790159
195	0xbbf5a430	-0.0074963793
196	0xbdbf101f	-0.09329247
197	0x3da4e42d	0.080513336
198	0xbcb7966c	-0.022410594
199	0x3dc29157	0.095003776
200	0x3c3a2880	0.011362195
201	0x3d0a842e	0.033817463
202	0x3c6d7430	0.014493033
203	0x3dacd049	0.08438165
204	0x3cc93918	0.024563357
205	0x3c07ee00	0.00829649
206	0x3a65dc00	0.00087684393
207	0x3d05dada	0.032679416
208	0x3c4a2c98	0.012339734
209	0xbd533523	-0.051564347
210	0x3dbfa8d7	0.093583755
211	0x3cd636a4	0.026149102
212	0xbd834f4c	-0.06411609
213	0x3dbfb12f	0.09359967
214	0x3d32ee36	0.043684207
215	0x3d1f7ab2	0.03893537
216	0xbb789ea0	-0.0037936345
217	0x3c9c8f0c	0.019111179
218	0xbd108acc	-0.035288617
219	0xbd651f8a	-0.05593828
220	0x3cd1e64c	0.02562251
221	0xbdb4396f	-0.08800017
222	0xbd03155c	-0.03200279
223	0x3b276840	0.0025544316
224	0x3d33981e	0.043846242
225	0xbbd6b1a0	-0.0065519363
226	0x3d195f3a	0.03744433
227	0x3db723c3	0.08942368
228	0xbd4159f3	-0.047204923
229	0x3ca4026c	0.020020686
230	0x3d82ff75	0.06396381
231	0x3d096b7e	0.03354978
232	0xbd51d5a3	-0.05122913
233	0xbca068cc	-0.019581221
234	0xbd8eb5ba	-0.06968255
235	0x3caaf5f4	0.020869233
236	0xbdc2d4e7	-0.09513264
237	0x3d65b3fe	0.056079857
238	0xbcea8338	-0.028627023
239	0xbcdee6f8	-0.027209744
240	0x3db6ea7f	0.08931445
241	0x3d45cc0a	0.04829029
242	0x3dc4a61f	0.096019976
243	0xbb884130	-0.0041581616
244	0x3db74245	0.08948187
245	0xbc92ca94	-0.017918862
246	0xbd7d7cca	-0.061886586
247	0x3c1561b0	0.009117529
248	0x3c5fc970	0.013658866
249	0x3dcb5529	0.099283524
250	0x3db242fb	0.08704182
251	0xbd9099ea	-0.07060607
252	0x3c3be280	0.011467576
253	0xbd83cb06	-0.06435208
254	0xbd559a4a	-0.052149095
255	0x3d8b0cf9	0.06789584

linear2.bias f4 [10]
0	0x3cf0de8c	0.029402994
1	0x3d1c8f92	0.038222857
2	0x3b8646d0	0.004097797
3	0xbb4b01a0	-0.003097631
4	0x3c7fd1f0	0.015614018
5	0xbd6f2fc7	-0.058395173
6	0xbd1ccbc3	-0.03828026
7	0xbd01efc4	-0.0317228
8	0xbd765197	-0.060136404
9	0xbd50f77d	-0.051017273
