DL/model_checkpoint.pth (torch, 320536 bytes, 4 tensors)

linear1.weight f4 [100, 784]
00000000: a1f6 213d 7fb4 443c 1763 8c3c e298 1c3d
00000010: ee26 183d bbd9 b03c 16c0 37bb 5430 6b3d
00000020: 1235 81bc f225 4cbd a50d dabd 744a 0abd
00000030: c8b5 533e 9ec3 b03d f87b cb3c 1678 123e
00000040: 62c0 523d 1b41 28be 328b 04be e956 aabb
00000050: adaf b23c 2b3b f139 43f4 243d 3cea ec3c
00000060: b9b2 183d ca3b 193b 7088 523d a0e3 623d
00000070: 5c45 4e3d d4ba 9e3c 7374 613d 3268 6f3c
00000080: f0a2 333d 9b16 4f3d 4c71 463d 8a44 16bd
00000090: 28f6 6fbd a3a2 b6bd fd02 35be f4dc 9dbc
000000a0: 7a13 d73d ca19 7c3d ca69 c33d f8f2 583d
000000b0: b9f2 90bd 57c3 85be 9a4e 73be afd6 c5bd
000000c0: a16e a6bd 0536 a73c fd48 c73c 0c2c 0b3c
000000d0: a0be 563d a075 a43c cda2 aebb e599 1a3d
000000e0: 54ed e43c 5777 adbb 70b0 ae3c ba14 2abc
000000f0: f6f8 0d3c 1549 5cbc 682a 49bd aa50 28bd
00000100: 4612 6b3d d553 933d df1b 923d 4b43 4d3d
00000110: 6fee ee3b ef32 c03d db91 653e 6261 8b3d
00000120: 9135 c73c 3474 0b3d beed 9d3d 4228 ae3d
00000130: c9c0 9cbd d2fe adbd b267 683c 740c 783b
00000140: d984 773c d476 ca3c 305e 453d 41fb 973c
00000150: 25ec 0c3d eb40 983c f1d3 8c3c 52c1 fb3c
00000160: 163b 593c edb4 7fbd 4793 80bd b24e 003e
00000170: 9a3a 313e 75c8 963d ffc7 89bc 046f 7d3c
00000180: 7e12 813d 9a26 da3d 249f 453e 6f91 f53d
00000190: f4f9 70bb 05d1 8dbd 1379 95bc cca8 f63d
000001a0: 2a4a b03d 9ad9 15bd c435 b8bd a47d 0ebd
000001b0: 8780 303c 87de 043d 0324 caba afd6 183d
000001c0: d3c3 f93b 233c 13bc dbb1 86bc 6865 4d3c
000001d0: 6348 3abd 7b06 8dbd c77b e4bc f479 933d
000001e0: 71a5 c73d dc4f 7abc d9fe a1bc 306f 233d
000001f0: 97a4 b03c 07d0 883d 6da6 f63d 60c5 753d
00000200: f2b4 b73c e67a d93b 3416 50bc 9426 093d
00000210: fa48 953d 6f67 8fbc 8267 74bd 6487 1bbd
00000220: e7ab d93b ba4d 13ba f74a 16bc 64e2 7ebc
00000230: 8ce4 9c3b d24f 133d 4cd6 713c ab61 2cbc
00000240: b429 9ebd aed1 67bd ab8c a33c 8971 8c3d
00000250: 30fb 7c3d 29c9 a0b6 cd8e e33c f8c8 d7bb
00000260: abbc 8fbb 4a8c 9e3d f4a5 0b3e 8ed7 9d3d
00000270: 1a99 62bc b9d6 adbb 4d59 31bc ea38 093d
00000280: 9a34 683c d2b3 ea3c 9e9a e4bd 3358 e3bd
00000290: a5d8 43bd efd6 27bc 7993 80bc f1fc 403d
000002a0: eb32 3dbc ca50 95bc 4309 81bc 3976 17bd
000002b0: d0b4 7bbd c3aa cebd 786b 4abd 4fa0 303c
000002c0: 5fcd f83c 1d71 35bc 1d1a 1a3d 15bc 40ba
000002d0: 4a73 2739 8009 453d c46a ce3d 7b5b a43c
000002e0: 95bf 0b3d 3cbd 17bc ed55 3b3c c40d 0e3d
000002f0: 909d b43c 086f b1bc 44f8 dcbd ac5f b6bd
00000300: 0b94 59bc 1713 a93c bcf6 423c 5a63 6f3c
00000310: bf64 1b3d 58ac 2fbd b828 e73a aab4 dfbb
00000320: 4878 b9bd 41d2 b6bd d3bd 3abd 9416 e7bc
00000330: 220e 8ebc e125 3abd d1fb 1fbd d800 aa3c
00000340: 0644 6cbd 79a5 643d de21 e03d fe79 a13b
00000350: db79 1d3d 1eb9 073b 380b 4e3d 1a8c c037
00000360: 277f 963d 39ad f83c 5887 c0bd 92b7 8dbd
00000370: 9a3f 8cbd cec4 b5bb 74ea 013c 66ba 923c
00000380: bc97 3f3b 6000 54bc 201d 4abd 1dde 0bbd
00000390: cbb4 80bd 8235 e7bd 9724 86bd f8ac 0ebb
000003a0: 3960 82bd e180 a6bd 5b7f dabd d2e2 c6bd
000003b0: 8c23 95bd 3da0 623b b334 fe3d c190 ce3b
000003c0: fe26 0cbc 0d0e b3bd 3ed6 bc3b 3028 a83c
000003d0: 7142 6e3d c5f8 033d dcfb 91bd 5eb0 a2bd
000003e0: 9e91 15bd 3806 29bc e3e6 10bd 0c0f adba
000003f0: 3638 e9bc f7c0 3cbd 2705 34bd 1135 9abd
0.039541844 0.012005924 0.017137093 0.038231738 0.0371465 0.021588197 -0.0028038076 0.057419136
-0.015772376 -0.049840875 -0.10647134 -0.03376241 0.20674813 0.08631061 0.024839386 0.14303622
0.051453 -0.16431086 -0.12943724 -0.005198349 0.021812284 0.00046011186 0.04027201 0.028920285
0.03727982 0.0023381584 0.05139965 0.05539286 0.050359115 0.019376196 0.055042695 0.014612244
0.04385656 0.050558668 0.048447892 -0.036686458 -0.058584362 -0.08917739 -0.17676921 -0.019270398
0.10501762 0.061548032 0.09541662 0.052966088 -0.07077546 -0.26125595 -0.23760453 -0.09660088
-0.081265695 0.0204115 0.024326796 0.008494388 0.052427888 0.02007562 -0.005329466 0.03774442
0.027945198 -0.0052937674 0.021324366 -0.010380918 0.008665314 -0.0134451585 -0.049112707 -0.041092552
0.057390474 0.07193724 0.07134222 0.050113004 0.007291607 0.09384715 0.2241892 0.06805684
0.024317535 0.034046367 0.07711361 0.08503772 -0.07653958 -0.08495869 0.014184879 0.003784922
0.015107357 0.024714865 0.048185527 0.018552424 0.034404892 0.018585643 0.017190905 0.03073183
0.013258716 -0.062428404 -0.06278091 0.1253002 0.17307511 0.07362453 -0.016818998 0.015468363
0.06302355 0.10651894 0.19298989 0.1199063 -0.0036770077 -0.06924633 -0.01824621 0.12043914
0.08607896 -0.036584474 -0.0899463 -0.03478779 0.010772831 0.03243878 -0.0015422109 0.037314113
0.007622221 -0.008986506 -0.01644223 0.012536384 -0.04547919 -0.06886002 -0.027891053 0.07200995
0.09748352 -0.015277829 -0.019774841 0.03990096 0.021562858 0.06680303 0.12043462 0.060002685
0.022425149 0.006636965 -0.012700606 0.033484057 0.0728931 -0.017505376 -0.059669025 -0.037970915
0.006642807 -0.0005619187 -0.009173146 -0.015556905 0.004787987 0.035964794 0.014760565 -0.010521333
-0.07722798 -0.05659645 0.019964537 0.068575926 0.06176299 -4.7917897e-06 0.027778054 -0.0065852366
-0.0043865046 0.07741602 0.13637525 0.077071294 -0.013830448 -0.005305138 -0.010824514 0.033501543
0.014172697 0.028650198 -0.111623034 -0.11100807 -0.04781403 -0.010244115 -0.01569532 0.047116224
-0.011547784 -0.018227 -0.015751487 -0.03697798 -0.061451733 -0.10091164 -0.049418896 0.010780408
0.030371366 -0.011074332 0.03762256 -0.0007352245 0.0001596931 0.048104763 0.10078958 0.020063153
0.034118254 -0.009261426 0.0114340605 0.034681097 0.022047788 -0.02165939 -0.107895404 -0.08904967
-0.013279925 0.020638986 0.011899646 0.01461109 0.037937876 -0.04288897 0.0017636037 -0.0068269568
-0.09056145 -0.089268215 -0.045591187 -0.028209008 -0.017340723 -0.04544628 -0.03905851 0.020752355
-0.05768206 0.05582187 0.1094396 0.0049278727 0.03844629 0.0020709704 0.050303668 2.2953423e-05
0.07348471 0.030356036 -0.09400815 -0.06919779 -0.068480685 -0.0055471426 0.007929433 0.017911147
0.0029234728 -0.0129395425 -0.049344182 -0.03414737 -0.062844835 -0.11289503 -0.06549948 -0.0021770578
-0.06366009 -0.081300505 -0.106688224 -0.09711231 -0.07282171 0.0034580373 0.12412395 0.006303877
-0.008554218 -0.08742914 0.0057628443 0.020526975 0.058168832 0.032219667 -0.071281165 -0.079437956
-0.036515824 -0.010316424 -0.03537644 -0.0013203337 -0.028469186 -0.046082463 -0.043950226 -0.07529653

linear1.bias f4 [100]
00000000: 62e9 20bd e326 c23b 877e 58bc 41ba 42bc
00000010: 50c5 373d 9071 0dbd cae9 803b 08da d5bc
00000020: 6c96 063a 3666 c63c 2327 98ba 3da7 2ebd
00000030: 2c6b fc3c cc18 0fbd 1425 073d 7e86 1f3d
00000040: ccea 3d3d cb4d 4e3c 1d5d 85bc baf2 4dbc
00000050: c753 06bd e704 993c 3788 753d 256d 01bc
00000060: 4178 abbc 6d84 5dbc 3177 0dbd 1c99 44bd
00000070: 94c6 3e3d e4b2 d5bc 0a84 223d 6f45 2f3d
00000080: 1fc5 0f3d ad1d 45bd 663f 263c 003b bebc
00000090: 3cd8 bfbc 8661 ce3c bbf1 773d 9461 7e3c
000000a0: 6364 8d3c 91f0 cc3c 65bf fd3b b9c7 51ba
000000b0: 7bf0 833b 66c2 31bc 46a7 103c e1b4 9cbb
000000c0: 1c14 023d 78dd 933c f370 95bc 4188 a3bb
000000d0: 3094 dfbc 83ee f7bb 2a2c b83c f02d 4abd
000000e0: 1094 b33c 475f 93bb 5cdf 46bd 7f14 eb3c
000000f0: 17b3 353c 2a9a 1abd 9a63 98bc c72f 7fbc
00000100: ada7 c3bb bfb8 62bb fba5 9f3b 8595 f73c
00000110: 9039 41bd 76ec cf3c acaa 0ebc 3590 c6bc
00000120: 01f8 7f3c c784 293d 024c 233c 273c 9abd
00000130: ead6 17bd 3963 a93c 6c38 e7bc e2fd 5d3c
00000140: d7df f2bc 4dd9 3d3c 1437 233a 4225 d53c
00000150: 4fd2 293d 2528 6c3c 1c6c e6bc 8e0a 1cbc
00000160: 8f43 d8bc aa14 81bc a621 023d 58b8 d93c
00000170: a05c c6bc 4517 623d acba cb3c 2487 523d
00000180: ca8e c13c 74f7 90bc aade 1dbd 4f3a d6bb
-0.03928507 0.005925046 -0.01321376 -0.011885227 0.044865906 -0.03453213 0.00393412 -0.026104942
0.0005134109 0.02421866 -0.0011608343 -0.04263996 0.030812822 -0.034935758 0.032994345 0.03894662
0.046366498 0.0125917895 -0.016279751 -0.012570078 -0.03279474 0.018679095 0.059944358 -0.007899557
-0.020931365 -0.013520342 -0.034537498 -0.04799758 0.046576098 -0.026086278 0.039676704 0.042790826
0.0351001 -0.048124004 0.010146951 -0.023221493 -0.023418538 0.025192987 0.060533267 0.015526194
0.017259782 0.025017055 0.0077437633 -0.0008002478 0.0040264702 -0.010849571 0.008828944 -0.0047823046
0.03175746 0.01804994 -0.018242335 -0.004990608 -0.027292341 -0.0075662746 0.022481997 -0.049360216
0.021921188 -0.004497442 -0.048552856 0.028696297 0.011090062 -0.03774468 -0.018602181 -0.015575356
-0.0059709162 -0.003459498 0.0048720813 0.030222664 -0.047174037 0.025381308 -0.0087076835 -0.024238685
0.015623094 0.041386392 0.009966852 -0.075310044 -0.037070192 0.020677196 -0.028225146 0.0135493
-0.02964775 0.011587453 0.0006226164 0.026018742 0.04146033 0.014413868 -0.028127722 -0.009524001
-0.026399402 -0.015756924 0.03177037 0.02657716 -0.024214089 0.055197973 0.024869286 0.05139841
0.023627657 -0.01769612 -0.038542427 -0.0065377126

linear2.weight f4 [10, 100]
00000000: c1f5 07be 1c80 4ebe 342d 953d a977 3c3e
00000010: 0926 0e3e 90c2 97be e5d4 05bd e900 95be
00000020: b912 d93d b5c4 81bd 649c 40be fff7 b83c
00000030: 215d fc3d 668b 8b3d af0e d13d 9ea4 eabc
00000040: 1c55 64be 2351 0b3e 89a4 a23d 3011 d2bc
00000050: 85ee c9bd b948 7dbe e820 f2bd f2fb 9b3d
00000060: 8ea0 7ebe 990c 21bd f433 75be b15a 02be
00000070: e300 c53d d085 acbd 37ed 1fbe 06a8 c13d
00000080: 5181 55be c381 15bd 8313 21be 5124 57bc
00000090: 5ed2 96bd 805f 8ebe 7e5f 80be 08e5 ad3c
000000a0: bf80 e5bb ac80 813c dca8 f8bc 5d03 2c3e
000000b0: 8a19 a13d e0df 873d dade 913d 5b94 14be
000000c0: 528f c53d 4d86 2dbe 5dff 123e bd55 073e
000000d0: 22cf fabd 7268 893d 794f b43d dc55 59be
000000e0: 7624 31be eaa8 71bd c995 a2bc ecf7 34be
000000f0: fa03 003e e9da 3a3e e56f 1abe 8a5d c9bd
00000100: ecff 83bd 275d 8ebe 416c 713d 96cb 283e
00000110: bca0 a53d 3a4a d73d 4496 96bd 1668 67bd
00000120: 5fdd 5d3c 5bce 33be 14ea 77be eabb 03be
00000130: a902 f3ba ba3c aa3d 3f04 4ebd 702d 0f3e
00000140: 6933 83be dc9d 753d 7e5a 253e c1e3 08be
00000150: d14a 8c3d 1c7b 2e3e 5543 86bc 6005 bb3d
00000160: 55b3 303c 1c98 eb3d 2a69 76bc ef06 45be
00000170: bd1e d53d d764 843d 6242 3abd f5b6 1b3e
00000180: 5dd3 923d 6b9f 11be 177b 943d 3e5e 84be
00000190: 1afb 8bbe 586a c7bd 09fa 53bd bc19 82bc
000001a0: 4f97 acbe a6ab 0e3e 84ea c1bd 190b 163e
000001b0: cf93 923d e6c7 4ebe 261a 663c b9d1 c03c
000001c0: 415a 6c3d b2f7 993d f1ee 623d abc0 2ebe
000001d0: a6da 163e 8700 0f3e 1dbc a73d 03a4 d2bc
000001e0: c18b 0c3e fa9f 61be 5101 3fbe 376c efbd
000001f0: 8d1b 92be 2b8e 1a3d 0a82 f2bd afad 563e
00000200: b9e8 88be 0c58 96bd de83 acbe 8981 28bb
00000210: 538b dc3d cdee 393e 2c18 61be c30d 4b3d
00000220: 29fb 03be e24c 533e be90 2abe dc5f 093e
00000230: 9170 88be 0650 37be 322f e5bc c9d5 4b3e
00000240: a603 203e 1200 8b3d f016 be3b 23a0 5fbe
00000250: 2aa0 75bc c348 afbe 2f77 04be b026 22be
00000260: 0f27 50be 9ac9 963d 6b7e a5bd fa39 6ebd
00000270: 0a05 4fbe a3cf 95be 8ae0 a23d 5e62 203e
00000280: d9d4 033e 245b 17be 6d18 61be fdf0 7dbe
00000290: 2511 9b3d 1c52 8bbe e60d 8fbd ec2a b2bd
000002a0: d765 0c3e 8a88 d63d c8af 073e 67cb b4bd
000002b0: dbfb 5ebd 5e00 b9be eaed 943d 3704 02be
000002c0: 7688 993d 4aed 16be 0422 2e3d bc3a a4be
000002d0: b440 a63d ed8c 953d 935f 483d c75f c83d
000002e0: 95d9 4dbe ea98 6fbe f379 28bb c611 243e
000002f0: 71ab f7bd 0a04 c0ba 6647 963d 7c28 84be
00000300: 3d27 413e 097a dfbc 905d b03d 45a8 56be
00000310: 72fa 413c 7b8e edbd a357 b03c a393 13bd
00000320: 93dc 80be bbb0 c1bd 519d 19bc 17bc 243e
00000330: 5468 843d cdc6 263d 6f9f b23d 6b14 143d
00000340: eaa1 5bbe afc1 4e3d 89be 033e e902 f4bd
00000350: a164 003e 0faa 90be d9eb 823c d506 85bc
00000360: 943c ed3c f6e7 2dbe d331 763c d5e1 8cbc
00000370: 098e 5f3d 81df 453d ca22 43be 6011 933d
00000380: 827b 8a3c b281 9d3d 786d c9bc ee0a 6d3c
00000390: 8220 e23c 0430 87bd 8254 cd3d f2e4 b43c
000003a0: 0f3e 153d 4340 21bd a1f1 f73d 46ed 64be
000003b0: 2e6a bd3c 6318 af3d 364c 6abe 9d90 76be
000003c0: bc3d dd3d d734 2abe aa2d 89be 18e3 80be
000003d0: 2632 2abe 0385 5dbe 5b5e 343d 7281 8d3d
000003e0: a9e5 e53d 5000 8b3d 4561 893d e5a2 bb3d
000003f0: 3b13 25be 12d2 5f3d ab16 053e 13ec f03d
-0.13277341 -0.20166057 0.072840124 0.18405022 0.13881697 -0.29640627 -0.032673735 -0.29102257
0.10599274 -0.06336347 -0.18809658 0.022579191 0.123224504 0.068136975 0.10207879 -0.028642949
-0.22298092 0.1360517 0.07941539 -0.025642961 -0.09859947 -0.24734773 -0.118226826 0.07616414
-0.24865934 -0.039318655 -0.239456 -0.12729909 0.0961931 -0.0842396 -0.15617834 0.09455876
-0.20850112 -0.036500704 -0.157301 -0.013131217 -0.07364343 -0.27807236 -0.25072855 0.021227375
-0.007003873 0.015808426 -0.030353956 0.16798158 0.07866199 0.06634498 0.07122584 -0.14509718
0.09646477 -0.16945763 0.14355226 0.132163 -0.12246539 0.067093745 0.08804221 -0.21224159
-0.17299065 -0.05899898 -0.019846814 -0.176727 0.12501517 0.1824757 -0.15081747 -0.09832294
-0.064452976 -0.27805445 0.05894113 0.16483912 0.08087298 0.105122045 -0.0735288 -0.05649575
0.0135415485 -0.17559187 -0.24210387 -0.12864652 -0.0018540221 0.08312364 -0.05029702 0.13982177
-0.2562516 0.059965 0.16147801 -0.13368131 0.068502076 0.1703915 -0.016389528 0.091318846
0.010784944 0.11503622 -0.0150397215 -0.19240926 0.104062535 0.06464546 -0.045473464 0.15206511
0.071692206 -0.1422097 0.0725004 -0.2585315 -0.27340013 -0.0973708 -0.051752124 -0.015881412
-0.3370919 0.13932666 -0.094685584 0.14652671 0.071570985 -0.20193443 0.01404432 0.023537504
0.05770326 0.07517947 0.055403654 -0.17065684 0.14731845 0.13965045 0.08190177 -0.025712973
0.13725187 -0.22033682 -0.18652846 -0.11690562 -0.28536645 0.03773324 -0.11841209 0.20964693
-0.26740053 -0.07341012 -0.33694357 -0.0025711975 0.107687615 0.18157502 -0.21981877 0.04957367
-0.12888779 0.20634797 -0.16656777 0.13415474 -0.2664838 -0.1790162 -0.027976606 0.19905771
0.15626392 0.06787123 0.005801074 -0.21838431 -0.014991799 -0.342352 -0.1293609 -0.1583507
-0.203274 0.07362671 -0.08080753 -0.05816076 -0.20216766 -0.29259977 0.07952984 0.15662524
0.12874164 -0.14780861 -0.21981974 -0.24798961 0.075716294 -0.27211082 -0.06985073 -0.08699593
0.13710724 0.104752615 0.13250649 -0.088278584 -0.054439407 -0.36133093 0.07271941 -0.1269692
0.07496731 -0.14738956 0.04251291 -0.3207606 0.0811781 0.0730227 0.04891927 0.09783893
-0.20102532 -0.23398176 -0.0025707453 0.16022405 -0.12093247 -0.0014649641 0.07337837 -0.25812137
0.18862624 -0.02727987 0.08611596 -0.20962627 0.011839496 -0.115994416 0.021526163 -0.03602947
-0.25168285 -0.09457537 -0.009375886 0.16087376 0.064652115 0.040716935 0.08721816 0.036152285
-0.21448484 0.05047768 0.12865652 -0.119146176 0.12538387 -0.28254744 0.015981602 -0.01623861
0.02895955 -0.16983017 0.015026527 -0.017197529 0.054578815 0.048308853 -0.1905624 0.071810484
0.016904596 0.07690753 -0.024588332 0.014467938 0.027603392 -0.06600955 0.10025884 0.022081826
0.036436137 -0.039367925 0.12106634 -0.22356138 0.02312192 0.08549573 -0.22880635 -0.24078603
0.108027905 -0.1662172 -0.2679265 -0.2517326 -0.16620693 -0.21632771 0.044035297 0.06909455
0.11225445 0.06787169 0.06708006 0.09161929 -0.16120617 0.054643698 0.12996928 0.117637776

linear2.bias f4 [10]
00000000: 33cb cf3c abbd c6bd dea4 f33c 2c29 aabc
00000010: 34b7 f8bc b395 5dbd a5d3 943d 66b7 8d3d
00000020: 7906 843d 042f cbbd
0.025365448 -0.09704145 0.0297417 -0.020771585 -0.030360796 -0.054097842 0.072669305 0.06919746
0.06446547 -0.09921077
