DL/model_checkpoint.pth (torch, 320536 bytes, 4 tensors)

linear1.weight f4 [100, 784]
00000000: 54be 82bc 4af3 d13c 70d0 68bc 21f0 903c
00000010: 05c7 b53c edc8 68bc 3e85 92ba 0a3b 2b3c
00000020: 5e23 053d bb1b 1abc 2e55 11bd 6a87 383d
00000030: 8f3b 753e 3e69 5a3e 9f12 0e3e 8767 243e
00000040: 2836 a43d 3846 bebd ba3c 6abd d30f ca3c
00000050: 8132 373d a199 313d 2304 1f3c 4894 963c
00000060: f2c3 b6ba fbbc 6e3c 93ac c53c fad6 c83c
00000070: 10be 483d c44e d13c 4adc bc3a bf8f c93c
00000080: 224b c8bb dee1 603d 9387 2e3d e540 ddbc
00000090: eb6f 7fbd f36f c6bd 2d40 b6bd 2dfc 963d
000000a0: c127 d13d 0373 113e b5ec b93d 4f96 913d
000000b0: 518e 90bc dd90 a4bd 38d0 25be 5c6c a0bd
000000c0: 8b80 56bd a20b e3bc e3af 383c 5ada 253d
000000d0: 4f40 eb3c c05b a8bc 493f 993c baaf 313d
000000e0: af6c ab3b cf3e ed3c 4abd f3bb e95a a6bc
000000f0: d6c5 ec3c a622 20bc 7a41 39bd 6230 b5bd
00000100: 04df 0e3d 8772 903d 0f2f 843c f044 7f3d
00000110: d482 e13c ebb2 8e3d 841d fb3d f2c6 8c3d
00000120: 1ee7 e1bb 090d 9b3b ccf5 2d3d 0c01 8ebc
00000130: 3289 f0bd 08c5 edbd 0eef 61bd a169 5a3b
00000140: ac1a 153d b05a bdbc 276f c3b9 2f3b 063d
00000150: 6472 413d 5202 6fbb 6fa3 8ebc 74e3 ea3c
00000160: 722f edbc 149d 68bd f476 b2bd 6f58 933d
00000170: 67ee e73d 3b30 753d f818 fc3c 0c12 9c3c
00000180: 21b9 1b3d 79ed dc3d d04e c33d e4c2 e03d
00000190: 1cd2 d33c 62c7 3abd f985 c03b 4afa f13c
000001a0: 6f94 513d b510 7abd d566 a2bd 66a9 29bd
000001b0: b711 ad3c 0cfb b03c fcc7 303c 0a1d a93c
000001c0: 057c 423d fa91 92ba 45f4 cabc 1c23 82bc
000001d0: 214b 11bd e27a 32bd 1043 3e3c 0b5b 213d
000001e0: 4340 713d dd6c 5dbc eb0d 8f3d 19a8 953d
000001f0: 79e0 a43d ec0a df3d 55a7 b03d abcd a83d
00000200: 6672 893d c5e8 d5bc 1f97 41bd 7ff0 02bc
00000210: f29c 4ebd 2dab 84bd 6875 a9bd 7c34 9bbd
00000220: 29e3 00bd 3c89 eebc 2ed8 f3ba a62d e33b
00000230: 7201 333a 8545 123d cbfe 843c 1828 e13c
00000240: 1936 00bc 381c 72bd 96e7 a73c 40ca 583d
00000250: 1fe5 c9b9 c6e6 243d 240d d13c 2195 603d
00000260: 79d6 883d c171 903d eccf 973d 0def 753d
00000270: 2b19 cd3d 499d 563d 6ffe 9dbc d0b4 68bd
00000280: 23b5 90bd a2bc a7bd 334f 5dbd b057 e7bd
00000290: 68ed 8fbd e996 1dbd 3e43 20bc e325 16bc
000002a0: ab7f 15bb 07c6 1e3c 0130 6a3c 1a88 98bc
000002b0: 7ab4 b2bc 0917 2bbd 6193 35bd d99b 3d39
000002c0: eefb 9fbc 2a3e 183c 9c37 c83c b384 4f3d
000002d0: db5b 37bc 7b6a 923d 522d f23c a9db 8b3d
000002e0: 6b45 733d 0647 d03d 30bd c53d 0e26 943c
000002f0: 8875 c6bc 5300 c9bc f3a8 c2bd cffa a7bd
00000300: 4d3a 21bd a655 80bc 988b 93bc 45c6 b63c
00000310: 843f 9cbc 0a30 a23c dd8c adbc 21f5 183c
00000320: eee6 6abd 83ea 6dbd f375 21bc da9a fbbb
00000330: efba e5bc 049d c73c 9c08 883a 5e04 033d
00000340: 2e65 a4bc 45a2 a23d 7276 c73c 6646 543d
00000350: 47ea 8c3c 2014 c63d da16 083e 9c7d 4f3d
00000360: b640 2abd 96b6 18bd cc6a b6bd 9385 dbbd
00000370: 1c78 93bd 4fa3 9ebd 86dd 29bc e943 f6bc
00000380: 930a b2bb 22e8 95bc 1c48 6cbc f1f0 cabb
00000390: 23ca 92bc 0709 01bd 8b88 773b ee39 61bc
000003a0: 64cd b9bd 25f0 84bd beff ffbc 1bf2 623c
000003b0: c06e 96bc 3a82 10ba fe07 a33c b10f 25bd
000003c0: fe88 213d b60b 8d3d d3b1 b93c 80d6 8c3b
000003d0: 10d4 46bd 36a1 37bc ddda 3cbd 1e4e 39bd
000003e0: 354e 4dbd d59f 77bd 602e 0cbc 0e49 08ba
000003f0: a190 7d3c d77a 3d3c cf07 25bd 45c4 7dbd
-0.015959896 0.025628705 -0.014209852 0.017692627 0.022189626 -0.014208061 -0.0011178625 0.010451088
0.032504432 -0.0094060255 -0.035481624 0.045051016 0.23948501 0.21329209 0.13874291 0.16055118
0.08018142 -0.09290737 -0.05718682 0.024665749 0.0447259 0.043359403 0.009705576 0.018381253
-0.0013943894 0.014571424 0.024130141 0.024516571 0.049009383 0.025550254 0.0014408913 0.024604676
-0.006112472 0.054902904 0.042609762 -0.027008483 -0.062362593 -0.09689321 -0.08898959 0.073723175
0.102126606 0.1420403 0.090783514 0.07108747 -0.017645987 -0.08035443 -0.1619271 -0.07833168
-0.052368682 -0.027715508 0.011272403 0.04049144 0.028717188 -0.020551562 0.018706935 0.043380477
0.005231462 0.028960614 -0.0074383365 -0.020307021 0.02890293 -0.009773886 -0.04522846 -0.08847119
0.034880653 0.07053094 0.01613572 0.062321603 0.027528204 0.0696772 0.12261489 0.06873883
-0.0068940064 0.0047317785 0.04247074 -0.017334484 -0.11744918 -0.11609846 -0.05515962 0.003332712
0.03640239 -0.023114532 -0.00037276113 0.032771286 0.047228232 -0.003646989 -0.017411916 0.028672911
-0.028953288 -0.056790426 -0.08714095 0.07194602 0.113247685 0.05986045 0.030773625 0.019051574
0.03801835 0.10787482 0.09536517 0.109746724 0.025857024 -0.045600303 0.005875346 0.029538292
0.051166948 -0.06105109 -0.0792977 -0.041421317 0.021126611 0.021604083 0.0107898675 0.02064373
0.047481555 -0.001118242 -0.02477468 -0.015885882 -0.03547204 -0.04357422 0.011612669 0.039393466
0.058899175 -0.013514725 0.069850765 0.07307453 0.08050627 0.10890755 0.08625666 0.08242353
0.06711273 -0.02611197 -0.04726326 -0.007991909 -0.050442643 -0.06477962 -0.082743466 -0.0757837
-0.031466637 -0.029118173 -0.0018603855 0.006932932 0.00068285235 0.03571083 0.016234776 0.027484939
-0.007825398 -0.059108943 0.020496171 0.052927256 -0.00038508416 0.040259145 0.025518961 0.05482972
0.066815324 0.07052947 0.07412705 0.06004243 0.10014566 0.052396093 -0.019286362 -0.05681306
-0.07065799 -0.08190276 -0.05403061 -0.11296022 -0.070277035 -0.038473997 -0.009781657 -0.009164306
-0.0022811692 0.009690768 0.014293672 -0.018619586 -0.021814574 -0.041770015 -0.044330005 0.00018082502
-0.01952931 0.009292165 0.02444058 0.05066366 -0.011191334 0.07149216 0.029562626 0.06829006
0.059392374 0.10169797 0.09655225 0.018084552 -0.024225965 -0.024536287 -0.09504881 -0.08202135
-0.03936224 -0.01566584 -0.0180109 0.02231134 -0.019073255 0.019798297 -0.021185333 0.009335787
-0.057349138 -0.058084976 -0.009854781 -0.007678372 -0.028043238 0.024366863 0.0010378542 0.031986587
-0.020067777 0.07941107 0.024348471 0.05182495 0.017201556 0.09671807 0.13289967 0.0506569
-0.04156562 -0.037283503 -0.08907089 -0.10718837 -0.072006434 -0.077459924 -0.010367757 -0.030061679
-0.0054333895 -0.018299166 -0.014421489 -0.0061932732 -0.017918652 -0.03150275 0.0037770595 -0.013746722
-0.09072378 -0.064911164 -0.031249877 0.013851668 -0.018363357 -0.00055125693 0.019901272 -0.040298168
0.039437287 0.06886999 0.022667801 0.0042980313 -0.048542082 -0.011207869 -0.04610716 -0.045240514
-0.050123412 -0.060455162 -0.008555979 -0.0005198874 0.015476377 0.011564932 -0.04029065 -0.061954755

linear1.bias f4 [100]
00000000: af04 08bc 77a7 d3bb 9275 cc3c 33f2 e4bc
00000010: 70d8 9abc af12 f9bc 9d6d 1a3d 2d52 c23b
00000020: d393 ea3c 26e0 c53c 58b4 fdbb 6999 33bc
00000030: 30b3 5f3d fbef 9c3c 8ff5 56bc 75e5 9bbc
00000040: e0e7 03ba 7f37 013c 5d5b 333d 6244 56bc
00000050: 13f5 a2bc 8e3d f93c 1ac7 133d 7469 753c
00000060: 1ad7 553c ab52 6d3c 09d4 053c ebd4 033d
00000070: 9df7 553c f6bf 1b3d 7191 5c3d d216 a5bc
00000080: be9d 8fbc cb62 e4bc 840d 0bbc 6776 c13c
00000090: 90eb 06bd 5ba4 1b3d dd94 2f3d ca1b b5bc
000000a0: 95e7 113c 1d0b 2dbc cb9c 5fbc 678e b9bc
000000b0: 18d8 18bd b4c6 983c 1228 3b3d b6aa 4d3d
000000c0: 1182 da37 67a7 f3ba 3a1a dabc e005 a93c
000000d0: 3a05 14bd a1bd 033d d352 3e3d 6f7c be3c
000000e0: 6d0d 623c b3c1 fbbc 5ea3 d93c 158b dd37
000000f0: e0e3 7fbc 348d 69bc aecc 363d e875 d03c
00000100: 521c e43c 3e61 8e3b 52c9 203d fe6b 3a3d
00000110: 4444 d0bc ae6e acba c231 a5bc cfbe 5c3b
00000120: 3c61 1d3d 4bf9 043d 2fed 6ebd a0cf 843c
00000130: 2c27 4f3d 3252 803c d567 303d 8837 a03c
00000140: a24e a9bc 512c c2bc 5b7c 973c 8417 1abb
00000150: 2146 56bc 899b 4c3c e93a f8bc 657f 19bc
00000160: 770c 793c d64b 5a3c 8b37 82bc 4f6a c53c
00000170: dcfe bcba a9f3 41bd dc9b 8cbc 2e5c d63c
00000180: ad94 dfbc f94d b9bc e136 573c 9d59 79bb
-0.008301898 -0.0064591723 0.024958406 -0.02794752 -0.018902034 -0.030404417 0.03770219 0.0059302063
0.028634941 0.024154734 -0.007742446 -0.010961869 0.054614246 0.0191574 -0.013120069 -0.019030312
-0.00050318055 0.007886766 0.043788303 -0.013077827 -0.019892251 0.03042486 0.03607855 0.014978755
0.0130517725 0.014485042 0.008168229 0.032185476 0.013059524 0.038024865 0.05384964 -0.020152483
-0.017531272 -0.02787914 -0.008487109 0.023616029 -0.032939494 0.03799854 0.042866576 -0.022107977
0.008905311 -0.010561732 -0.013648222 -0.02265091 -0.037315458 0.018649437 0.04569251 0.05021163
2.6048192e-05 -0.0018589318 -0.026623834 0.020632684 -0.036137797 0.032163266 0.046465706 0.023252694
0.013797146 -0.030732011 0.026567157 2.6410018e-05 -0.0156182945 -0.014254857 0.04462879 0.025446847
0.027845535 0.0043450883 0.039254494 0.045513146 -0.025423177 -0.0013155544 -0.020165328 0.0033683067
0.038422808 0.032464307 -0.058331665 0.016212285 0.050574467 0.015664194 0.043067772 0.01955773
-0.020667378 -0.023702772 0.018491914 -0.0023512552 -0.0130782435 0.012488254 -0.030301528 -0.009368752
0.015200726 0.013323745 -0.015895626 0.024098543 -0.0014419216 -0.047351513 -0.017164163 0.026167002
-0.027292574 -0.022620188 0.013135643 -0.0038047798

linear2.weight f4 [10, 100]
00000000: c213 08be 2109 afbd b489 abbd eca1 b63b
00000010: 8c0c 2dbe 9288 13be a2cc c7bd 42c8 73be
00000020: bb56 093e 2a7b 303d 498d 17be 5d32 edbc
00000030: 8806 edbc 82a3 4cbd 5465 013e 0034 8ebe
00000040: 4bdf 263e 262a c9bc f34c 60be 778e 20bd
00000050: 61c9 043d bb54 2b3e 5d8d d93d 9b8d 883c
00000060: a844 67be e989 ca3d f8f3 3cbe 74a6 24be
00000070: 72d7 91bc 7ba0 0c3e d1e2 37bd 122a 853b
00000080: a53e 3ebd 71fc fc3d 5d62 30be 4028 bb3d
00000090: fd9e 083e f335 81bc a873 c5bd 3eed 8bbc
000000a0: 7427 463d 272a 1abe 3618 e93c 1076 0abe
000000b0: 9209 813d cd9c 4ebe 791c dd3d dd10 ea3d
000000c0: d11f 393d fc9e 4dbe 7fd4 35be 8e83 a23d
000000d0: b91c 2b3e 81e5 20be ce0b 163e d3e8 ff3c
000000e0: ab1e 76bb fe5b 82bd bbe6 87be 0e3f 3dbd
000000f0: 167c ce3d 1e2e d23d e53c 173e 8a46 88be
00000100: 2da8 a6bd 8c46 bcbd 6189 16be be09 2abe
00000110: e508 6ebe f13f a93d eec1 4a3d f740 a23d
00000120: 085b e63c 7948 2d3e cbf9 33be 4deb 1fbe
00000130: 4cb7 aebe 1e0f e43d f627 563c b0d3 083e
00000140: 6998 1abe ce35 c8bd 3d76 2f3e a9df 02be
00000150: 773d 47be 122b 92be ae6b 04bd 558f ed3d
00000160: e28e f1bd f8d1 1d3e bb92 063e a7e8 9d3d
00000170: 097a 0bbd b2be 0bbe a91a c53d b6a8 8f3d
00000180: 89ff 2e3e 38e9 ab3b c4e0 063e 0a8a 8a3c
00000190: db23 bd3d fe85 183e 7321 9e3d e674 b63d
000001a0: 762f a1bd 4dee 0f3e 9c76 35be eb07 903e
000001b0: 3240 d5bd d26a 603d 5c61 53be 817d a73d
000001c0: 7861 3cbd 5401 053e 0310 babd 385d 07be
000001d0: f5f5 88bd a91d 1c3e b342 2abd 416e 57bd
000001e0: 4f5b 243e 9ecb 3a3e 6ddf 40be 5451 c63c
000001f0: 8247 0ebe 3941 333e 473b 78be 4254 23be
00000200: e1bf 95be ffc0 26be f174 d53c 1980 ddbd
00000210: b713 5ebd 5676 fa3d 7718 993d dbf3 3ebe
00000220: 8c1d 233e 9de3 2ebe 4b22 a1bd c5c7 2cbb
00000230: bc22 3bbe e731 023e b0a3 263e 4291 3fbe
00000240: 70ac fbbd 8e60 26be ce06 7a3d b132 653b
00000250: 8b08 ab3c 7acf 2bbe 7d85 1c3d a70b ee3d
00000260: 389f 2abd c834 b2bd b831 15be bf1f 3e3e
00000270: fb96 a5bd 3d0e 14be 6e43 06be a462 99be
00000280: 112b a13d 32f4 83be 0d12 dd3d 040b 62bd
00000290: 39b5 b0bd c170 6dbe 6a1d 97be 3f00 46be
000002a0: a8dc b6bd 4c05 f0bd 6c13 993d 9cc0 11be
000002b0: 4aed 6e3c 71a2 543d 4b03 bb3d 5bfb 213e
000002c0: 223d 043e e85a 0abe 7555 343e 5254 e9bd
000002d0: 3e24 a13d d219 63be e9fd ffbc 0698 843c
000002e0: e587 923e a368 35bd d32a 5fbe 9fc2 d53d
000002f0: b560 2a3b cf95 03bd fed9 6ebe 8288 93be
00000300: d88f 6c3d 5290 cd3d 51dd cc3c 763a 09be
00000310: ccf1 28be a0b1 b13d 1162 99be 36b9 f63d
00000320: 7c13 5ebe 647d 95bd 31b7 a23d 48ab ce3d
00000330: ddfd 06be 726d 49bd 37b9 41be 3f24 923c
00000340: ae9e 123e 03ee 993d 29bd 17be 12f1 3b3d
00000350: 0961 42be 7d1c ae3d a1d4 723d a936 993d
00000360: 6510 32be 7350 cb3d 5977 e5bc cd3e 97bd
00000370: 1af0 f3bd 781d c73d 9f1d 28be d08e 123d
00000380: bd8b bcbc 1dec f53d 32c1 88be 9a93 cc3d
00000390: c8cf 753b 232b 0fbe f3f2 c9bc 07c5 da3c
000003a0: f44c a3be ce1c 093e 31e8 27bd 50cb e63d
000003b0: b70a aabd 3063 c8bc 8cc2 903d 9be5 e83d
000003c0: 30da 51be 0799 c93c f3b8 ed3c ea05 67be
000003d0: 4e10 11bd c64f 633d 0966 5c3d 9425 143d
000003e0: 4ef4 28bc 49be 9f3d 5574 663d 6d25 853d
000003f0: 99ea 31be 935e 31be b14d 84bd 2bf0 48be
-0.13288787 -0.08546663 -0.08375874 0.005573502 -0.16899318 -0.14407566 -0.097558275 -0.23806861
0.13411991 0.04308621 -0.1479999 -0.02895468 -0.028933778 -0.04996062 0.1263631 -0.27774048
0.16296117 -0.02455623 -0.21904354 -0.039198365 0.032418612 0.16731541 0.10622666 0.016669085
-0.22584784 0.098895855 -0.18452442 -0.16079122 -0.017802928 0.13733093 -0.044894043 0.004063853
-0.04644646 0.12352837 -0.17225023 0.091385365 0.13341899 -0.015772795 -0.096412 -0.0170809
0.04837747 -0.15055142 0.028453927 -0.135216 0.063006535 -0.20177002 0.10796446 0.11428998
0.045196358 -0.20080179 -0.17756842 0.07935248 0.16710176 -0.15712549 0.1465294 0.031238949
-0.00375549 -0.06365202 -0.2654322 -0.04620271 0.10082261 0.102627024 0.14769323 -0.26616317
-0.08137546 -0.09193143 -0.14700843 -0.16605279 -0.2324558 0.08264149 0.049501352 0.07922547
0.028119579 0.16922177 -0.17575757 -0.15617104 -0.3412422 0.11135696 0.013071051 0.13362002
-0.15097202 -0.097758874 0.17134948 -0.12780632 -0.1945704 -0.28548485 -0.032329254 0.11599604
-0.11794831 0.15412128 0.1314191 0.077103905 -0.03405193 -0.13646963 0.09624226 0.07014601
0.17089666 0.0052463077 0.13171679 0.016911525 0.092353545 0.14894864 0.07721224 0.08909015
-0.078703806 0.14055748 -0.17721027 0.2813104 -0.10412635 0.05478937 -0.20642608 0.08178235
-0.04599139 0.12988788 -0.09085085 -0.13219154 -0.066875376 0.1524569 -0.041567516 -0.05259538
0.16050456 0.18241736 -0.1883523 0.024208702 -0.13894466 0.17505349 -0.24241363 -0.1595011
-0.29247954 -0.1628456 0.026056739 -0.10815448 -0.05421802 0.12229602 0.074753694 -0.18647711
0.1592924 -0.17079015 -0.07867869 -0.002636419 -0.18274969 0.12714349 0.1627338 -0.18707755
-0.12288749 -0.1624777 0.061041646 0.0034972841 0.020878097 -0.16778365 0.03821324 0.11623316
-0.04165575 -0.087014735 -0.14569747 0.18566798 -0.08085438 -0.14458556 -0.1311166 -0.2995807
0.078695424 -0.25772244 0.107944585 -0.055186287 -0.086283155 -0.23187543 -0.2951463 -0.19336031
-0.089288056 -0.1171976 0.074744076 -0.14233631 0.014582941 0.05191273 0.091314875 0.15818541
0.12913945 -0.1351124 0.17610724 -0.11393036 0.07868241 -0.22177818 -0.031249003 0.016185772
0.28619304 -0.044289242 -0.2179368 0.10437512 0.0025997583 -0.03212529 -0.23325345 -0.28815085
0.057754368 0.100372925 0.025007876 -0.13401207 -0.16498488 0.086764574 -0.2995763 0.12047045
-0.2168712 -0.07299307 0.07945097 0.10091263 -0.13182779 -0.04917664 -0.1891831 0.01783955
0.14318344 0.075161 -0.14818253 0.0458842 -0.18982328 0.085015275 0.05928481 0.07481129
-0.17389067 0.09927454 -0.028011011 -0.07385025 -0.1191103 0.097224176 -0.1641755 0.035780728
-0.023015851 0.12007926 -0.26709896 0.0998909 0.003750788 -0.13981299 -0.02465198 0.026705278
-0.31894648 0.13389894 -0.04099292 0.112692475 -0.08302825 -0.024461359 0.07068357 0.11371919
-0.20493388 0.024609102 0.029018855 -0.2256085 -0.03541594 0.055496 0.053808246 0.03616865
-0.010312153 0.07799966 0.056263287 0.06501279 -0.17374648 -0.17321233 -0.06460131 -0.19622867

linear2.bias f4 [10]
00000000: 1246 00bd 1428 933d 2527 603d fa39 31bc
00000010: 7b1f eabd fecd 4a3d 6479 863d 0015 d9bc
00000020: e006 ea3d 1253 a23d
-0.031316824 0.07185379 0.05472483 -0.010817045 -0.11431786 0.049512856 0.06566122 -0.026499271
0.114270926 0.07926001
